{
    "format": "graph-model",
    "generatedBy": "2.12.0",
    "convertedBy": "TensorFlow.js Converter v4.8.0",
    "signature": {
        "inputs": {
            "input": {
                "name": "input:0",
                "dtype": "DT_FLOAT",
                "tensorShape": {
                    "dim": [
                        {
                            "size": "-1"
                        },
                        {
                            "size": "3"
                        },
                        {
                            "size": "224"
                        },
                        {
                            "size": "224"
                        }
                    ]
                }
            }
        },
        "outputs": {
            "output": {
                "name": "Identity:0",
                "dtype": "DT_FLOAT",
                "tensorShape": {
                    "dim": [
                        {
                            "size": "-1"
                        },
                        {
                            "size": "51"
                        }
                    ]
                }
            }
        }
    },
    "modelTopology": {
        "node": [
            {
                "name": "PartitionedCall/strided_slice/stack",
                "op": "Const",
                "attr": {
                    "value": {
                        "tensor": {
                            "dtype": "DT_INT32",
                            "tensorShape": {
                                "dim": [
                                    {
                                        "size": "1"
                                    }
                                ]
                            }
                        }
                    },
                    "dtype": {
                        "type": "DT_INT32"
                    }
                }
            },
            {
                "name": "PartitionedCall/strided_slice/stack_1",
                "op": "Const",
                "attr": {
                    "value": {
                        "tensor": {
                            "dtype": "DT_INT32",
                            "tensorShape": {
                                "dim": [
                                    {
                                        "size": "1"
                                    }
                                ]
                            }
                        }
                    },
                    "dtype": {
                        "type": "DT_INT32"
                    }
                }
            },
            {
                "name": "PartitionedCall/strided_slice/stack_2",
                "op": "Const",
                "attr": {
                    "value": {
                        "tensor": {
                            "dtype": "DT_INT32",
                            "tensorShape": {
                                "dim": [
                                    {
                                        "size": "1"
                                    }
                                ]
                            }
                        }
                    },
                    "dtype": {
                        "type": "DT_INT32"
                    }
                }
            },
            {
                "name": "PartitionedCall/Const_12",
                "op": "Const",
                "attr": {
                    "dtype": {
                        "type": "DT_INT32"
                    },
                    "value": {
                        "tensor": {
                            "dtype": "DT_INT32",
                            "tensorShape": {
                                "dim": [
                                    {
                                        "size": "1"
                                    }
                                ]
                            }
                        }
                    }
                }
            },
            {
                "name": "ConstantFolding/PartitionedCall/split_45-folded-1",
                "op": "Const",
                "attr": {
                    "dtype": {
                        "type": "DT_INT32"
                    },
                    "value": {
                        "tensor": {
                            "dtype": "DT_INT32",
                            "tensorShape": {
                                "dim": [
                                    {
                                        "size": "2"
                                    }
                                ]
                            }
                        }
                    }
                }
            },
            {
                "name": "PartitionedCall/transpose_145/perm",
                "op": "Const",
                "attr": {
                    "value": {
                        "tensor": {
                            "dtype": "DT_INT32",
                            "tensorShape": {
                                "dim": [
                                    {
                                        "size": "4"
                                    }
                                ]
                            }
                        }
                    },
                    "dtype": {
                        "type": "DT_INT32"
                    }
                }
            },
            {
                "name": "PartitionedCall/split_46",
                "op": "Const",
                "attr": {
                    "dtype": {
                        "type": "DT_FLOAT"
                    },
                    "value": {
                        "tensor": {
                            "dtype": "DT_FLOAT",
                            "tensorShape": {
                                "dim": [
                                    {
                                        "size": "1"
                                    },
                                    {
                                        "size": "1"
                                    },
                                    {
                                        "size": "576"
                                    },
                                    {
                                        "size": "144"
                                    }
                                ]
                            }
                        }
                    }
                }
            },
            {
                "name": "PartitionedCall/onnx_tf_prefix_/Constant_100",
                "op": "Const",
                "attr": {
                    "dtype": {
                        "type": "DT_FLOAT"
                    },
                    "value": {
                        "tensor": {
                            "dtype": "DT_FLOAT",
                            "tensorShape": {
                                "dim": [
                                    {
                                        "size": "144"
                                    }
                                ]
                            }
                        }
                    }
                }
            },
            {
                "name": "PartitionedCall/transpose_146/perm",
                "op": "Const",
                "attr": {
                    "value": {
                        "tensor": {
                            "dtype": "DT_INT32",
                            "tensorShape": {
                                "dim": [
                                    {
                                        "size": "4"
                                    }
                                ]
                            }
                        }
                    },
                    "dtype": {
                        "type": "DT_INT32"
                    }
                }
            },
            {
                "name": "PartitionedCall/transpose_148/perm",
                "op": "Const",
                "attr": {
                    "dtype": {
                        "type": "DT_INT32"
                    },
                    "value": {
                        "tensor": {
                            "dtype": "DT_INT32",
                            "tensorShape": {
                                "dim": [
                                    {
                                        "size": "4"
                                    }
                                ]
                            }
                        }
                    }
                }
            },
            {
                "name": "PartitionedCall/split_47",
                "op": "Const",
                "attr": {
                    "value": {
                        "tensor": {
                            "dtype": "DT_FLOAT",
                            "tensorShape": {
                                "dim": [
                                    {
                                        "size": "1"
                                    },
                                    {
                                        "size": "1"
                                    },
                                    {
                                        "size": "144"
                                    },
                                    {
                                        "size": "576"
                                    }
                                ]
                            }
                        }
                    },
                    "dtype": {
                        "type": "DT_FLOAT"
                    }
                }
            },
            {
                "name": "PartitionedCall/onnx_tf_prefix_/Constant_102",
                "op": "Const",
                "attr": {
                    "value": {
                        "tensor": {
                            "dtype": "DT_FLOAT",
                            "tensorShape": {
                                "dim": [
                                    {
                                        "size": "576"
                                    }
                                ]
                            }
                        }
                    },
                    "dtype": {
                        "type": "DT_FLOAT"
                    }
                }
            },
            {
                "name": "PartitionedCall/transpose_149/perm",
                "op": "Const",
                "attr": {
                    "value": {
                        "tensor": {
                            "dtype": "DT_INT32",
                            "tensorShape": {
                                "dim": [
                                    {
                                        "size": "4"
                                    }
                                ]
                            }
                        }
                    },
                    "dtype": {
                        "type": "DT_INT32"
                    }
                }
            },
            {
                "name": "PartitionedCall/mul_25/y",
                "op": "Const",
                "attr": {
                    "dtype": {
                        "type": "DT_FLOAT"
                    },
                    "value": {
                        "tensor": {
                            "dtype": "DT_FLOAT",
                            "tensorShape": {}
                        }
                    }
                }
            },
            {
                "name": "PartitionedCall/add_75/y",
                "op": "Const",
                "attr": {
                    "dtype": {
                        "type": "DT_FLOAT"
                    },
                    "value": {
                        "tensor": {
                            "dtype": "DT_FLOAT",
                            "tensorShape": {}
                        }
                    }
                }
            },
            {
                "name": "PartitionedCall/clip_by_value_25/Minimum/y",
                "op": "Const",
                "attr": {
                    "dtype": {
                        "type": "DT_FLOAT"
                    },
                    "value": {
                        "tensor": {
                            "dtype": "DT_FLOAT",
                            "tensorShape": {}
                        }
                    }
                }
            },
            {
                "name": "PartitionedCall/clip_by_value_25/y",
                "op": "Const",
                "attr": {
                    "dtype": {
                        "type": "DT_FLOAT"
                    },
                    "value": {
                        "tensor": {
                            "dtype": "DT_FLOAT",
                            "tensorShape": {}
                        }
                    }
                }
            },
            {
                "name": "PartitionedCall/transpose_139/perm",
                "op": "Const",
                "attr": {
                    "dtype": {
                        "type": "DT_INT32"
                    },
                    "value": {
                        "tensor": {
                            "dtype": "DT_INT32",
                            "tensorShape": {
                                "dim": [
                                    {
                                        "size": "4"
                                    }
                                ]
                            }
                        }
                    }
                }
            },
            {
                "name": "PartitionedCall/split_44",
                "op": "Const",
                "attr": {
                    "value": {
                        "tensor": {
                            "dtype": "DT_FLOAT",
                            "tensorShape": {
                                "dim": [
                                    {
                                        "size": "1"
                                    },
                                    {
                                        "size": "1"
                                    },
                                    {
                                        "size": "96"
                                    },
                                    {
                                        "size": "576"
                                    }
                                ]
                            }
                        }
                    },
                    "dtype": {
                        "type": "DT_FLOAT"
                    }
                }
            },
            {
                "name": "PartitionedCall/onnx_tf_prefix_/Constant_96",
                "op": "Const",
                "attr": {
                    "dtype": {
                        "type": "DT_FLOAT"
                    },
                    "value": {
                        "tensor": {
                            "dtype": "DT_FLOAT",
                            "tensorShape": {
                                "dim": [
                                    {
                                        "size": "576"
                                    }
                                ]
                            }
                        }
                    }
                }
            },
            {
                "name": "PartitionedCall/transpose_140/perm",
                "op": "Const",
                "attr": {
                    "value": {
                        "tensor": {
                            "dtype": "DT_INT32",
                            "tensorShape": {
                                "dim": [
                                    {
                                        "size": "4"
                                    }
                                ]
                            }
                        }
                    },
                    "dtype": {
                        "type": "DT_INT32"
                    }
                }
            },
            {
                "name": "PartitionedCall/mul_23/y",
                "op": "Const",
                "attr": {
                    "dtype": {
                        "type": "DT_FLOAT"
                    },
                    "value": {
                        "tensor": {
                            "dtype": "DT_FLOAT",
                            "tensorShape": {}
                        }
                    }
                }
            },
            {
                "name": "PartitionedCall/add_70/y",
                "op": "Const",
                "attr": {
                    "value": {
                        "tensor": {
                            "dtype": "DT_FLOAT",
                            "tensorShape": {}
                        }
                    },
                    "dtype": {
                        "type": "DT_FLOAT"
                    }
                }
            },
            {
                "name": "PartitionedCall/clip_by_value_23/Minimum/y",
                "op": "Const",
                "attr": {
                    "value": {
                        "tensor": {
                            "dtype": "DT_FLOAT",
                            "tensorShape": {}
                        }
                    },
                    "dtype": {
                        "type": "DT_FLOAT"
                    }
                }
            },
            {
                "name": "PartitionedCall/clip_by_value_23/y",
                "op": "Const",
                "attr": {
                    "dtype": {
                        "type": "DT_FLOAT"
                    },
                    "value": {
                        "tensor": {
                            "dtype": "DT_FLOAT",
                            "tensorShape": {}
                        }
                    }
                }
            },
            {
                "name": "PartitionedCall/Const_11",
                "op": "Const",
                "attr": {
                    "dtype": {
                        "type": "DT_INT32"
                    },
                    "value": {
                        "tensor": {
                            "dtype": "DT_INT32",
                            "tensorShape": {
                                "dim": [
                                    {
                                        "size": "4"
                                    },
                                    {
                                        "size": "2"
                                    }
                                ]
                            }
                        }
                    }
                }
            },
            {
                "name": "PartitionedCall/transpose_142/perm",
                "op": "Const",
                "attr": {
                    "dtype": {
                        "type": "DT_INT32"
                    },
                    "value": {
                        "tensor": {
                            "dtype": "DT_INT32",
                            "tensorShape": {
                                "dim": [
                                    {
                                        "size": "4"
                                    }
                                ]
                            }
                        }
                    }
                }
            },
            {
                "name": "PartitionedCall/Reshape_10",
                "op": "Const",
                "attr": {
                    "dtype": {
                        "type": "DT_FLOAT"
                    },
                    "value": {
                        "tensor": {
                            "dtype": "DT_FLOAT",
                            "tensorShape": {
                                "dim": [
                                    {
                                        "size": "5"
                                    },
                                    {
                                        "size": "5"
                                    },
                                    {
                                        "size": "576"
                                    },
                                    {
                                        "size": "1"
                                    }
                                ]
                            }
                        }
                    }
                }
            },
            {
                "name": "PartitionedCall/onnx_tf_prefix_/Constant_98",
                "op": "Const",
                "attr": {
                    "dtype": {
                        "type": "DT_FLOAT"
                    },
                    "value": {
                        "tensor": {
                            "dtype": "DT_FLOAT",
                            "tensorShape": {
                                "dim": [
                                    {
                                        "size": "576"
                                    }
                                ]
                            }
                        }
                    }
                }
            },
            {
                "name": "PartitionedCall/transpose_143/perm",
                "op": "Const",
                "attr": {
                    "value": {
                        "tensor": {
                            "dtype": "DT_INT32",
                            "tensorShape": {
                                "dim": [
                                    {
                                        "size": "4"
                                    }
                                ]
                            }
                        }
                    },
                    "dtype": {
                        "type": "DT_INT32"
                    }
                }
            },
            {
                "name": "PartitionedCall/mul_24/y",
                "op": "Const",
                "attr": {
                    "dtype": {
                        "type": "DT_FLOAT"
                    },
                    "value": {
                        "tensor": {
                            "dtype": "DT_FLOAT",
                            "tensorShape": {}
                        }
                    }
                }
            },
            {
                "name": "PartitionedCall/add_72/y",
                "op": "Const",
                "attr": {
                    "dtype": {
                        "type": "DT_FLOAT"
                    },
                    "value": {
                        "tensor": {
                            "dtype": "DT_FLOAT",
                            "tensorShape": {}
                        }
                    }
                }
            },
            {
                "name": "PartitionedCall/clip_by_value_24/Minimum/y",
                "op": "Const",
                "attr": {
                    "value": {
                        "tensor": {
                            "dtype": "DT_FLOAT",
                            "tensorShape": {}
                        }
                    },
                    "dtype": {
                        "type": "DT_FLOAT"
                    }
                }
            },
            {
                "name": "PartitionedCall/clip_by_value_24/y",
                "op": "Const",
                "attr": {
                    "dtype": {
                        "type": "DT_FLOAT"
                    },
                    "value": {
                        "tensor": {
                            "dtype": "DT_FLOAT",
                            "tensorShape": {}
                        }
                    }
                }
            },
            {
                "name": "PartitionedCall/transpose_151/perm",
                "op": "Const",
                "attr": {
                    "dtype": {
                        "type": "DT_INT32"
                    },
                    "value": {
                        "tensor": {
                            "dtype": "DT_INT32",
                            "tensorShape": {
                                "dim": [
                                    {
                                        "size": "4"
                                    }
                                ]
                            }
                        }
                    }
                }
            },
            {
                "name": "PartitionedCall/split_48",
                "op": "Const",
                "attr": {
                    "value": {
                        "tensor": {
                            "dtype": "DT_FLOAT",
                            "tensorShape": {
                                "dim": [
                                    {
                                        "size": "1"
                                    },
                                    {
                                        "size": "1"
                                    },
                                    {
                                        "size": "576"
                                    },
                                    {
                                        "size": "96"
                                    }
                                ]
                            }
                        }
                    },
                    "dtype": {
                        "type": "DT_FLOAT"
                    }
                }
            },
            {
                "name": "PartitionedCall/onnx_tf_prefix_/Constant_104",
                "op": "Const",
                "attr": {
                    "value": {
                        "tensor": {
                            "dtype": "DT_FLOAT",
                            "tensorShape": {
                                "dim": [
                                    {
                                        "size": "96"
                                    }
                                ]
                            }
                        }
                    },
                    "dtype": {
                        "type": "DT_FLOAT"
                    }
                }
            },
            {
                "name": "PartitionedCall/transpose_152/perm",
                "op": "Const",
                "attr": {
                    "dtype": {
                        "type": "DT_INT32"
                    },
                    "value": {
                        "tensor": {
                            "dtype": "DT_INT32",
                            "tensorShape": {
                                "dim": [
                                    {
                                        "size": "4"
                                    }
                                ]
                            }
                        }
                    }
                }
            },
            {
                "name": "ConstantFolding/PartitionedCall/split_40-folded-1",
                "op": "Const",
                "attr": {
                    "value": {
                        "tensor": {
                            "dtype": "DT_INT32",
                            "tensorShape": {
                                "dim": [
                                    {
                                        "size": "2"
                                    }
                                ]
                            }
                        }
                    },
                    "dtype": {
                        "type": "DT_INT32"
                    }
                }
            },
            {
                "name": "PartitionedCall/transpose_130/perm",
                "op": "Const",
                "attr": {
                    "value": {
                        "tensor": {
                            "dtype": "DT_INT32",
                            "tensorShape": {
                                "dim": [
                                    {
                                        "size": "4"
                                    }
                                ]
                            }
                        }
                    },
                    "dtype": {
                        "type": "DT_INT32"
                    }
                }
            },
            {
                "name": "PartitionedCall/split_41",
                "op": "Const",
                "attr": {
                    "value": {
                        "tensor": {
                            "dtype": "DT_FLOAT",
                            "tensorShape": {
                                "dim": [
                                    {
                                        "size": "1"
                                    },
                                    {
                                        "size": "1"
                                    },
                                    {
                                        "size": "576"
                                    },
                                    {
                                        "size": "144"
                                    }
                                ]
                            }
                        }
                    },
                    "dtype": {
                        "type": "DT_FLOAT"
                    }
                }
            },
            {
                "name": "PartitionedCall/onnx_tf_prefix_/Constant_90",
                "op": "Const",
                "attr": {
                    "value": {
                        "tensor": {
                            "dtype": "DT_FLOAT",
                            "tensorShape": {
                                "dim": [
                                    {
                                        "size": "144"
                                    }
                                ]
                            }
                        }
                    },
                    "dtype": {
                        "type": "DT_FLOAT"
                    }
                }
            },
            {
                "name": "PartitionedCall/transpose_131/perm",
                "op": "Const",
                "attr": {
                    "dtype": {
                        "type": "DT_INT32"
                    },
                    "value": {
                        "tensor": {
                            "dtype": "DT_INT32",
                            "tensorShape": {
                                "dim": [
                                    {
                                        "size": "4"
                                    }
                                ]
                            }
                        }
                    }
                }
            },
            {
                "name": "PartitionedCall/transpose_133/perm",
                "op": "Const",
                "attr": {
                    "value": {
                        "tensor": {
                            "dtype": "DT_INT32",
                            "tensorShape": {
                                "dim": [
                                    {
                                        "size": "4"
                                    }
                                ]
                            }
                        }
                    },
                    "dtype": {
                        "type": "DT_INT32"
                    }
                }
            },
            {
                "name": "PartitionedCall/split_42",
                "op": "Const",
                "attr": {
                    "value": {
                        "tensor": {
                            "dtype": "DT_FLOAT",
                            "tensorShape": {
                                "dim": [
                                    {
                                        "size": "1"
                                    },
                                    {
                                        "size": "1"
                                    },
                                    {
                                        "size": "144"
                                    },
                                    {
                                        "size": "576"
                                    }
                                ]
                            }
                        }
                    },
                    "dtype": {
                        "type": "DT_FLOAT"
                    }
                }
            },
            {
                "name": "PartitionedCall/onnx_tf_prefix_/Constant_92",
                "op": "Const",
                "attr": {
                    "dtype": {
                        "type": "DT_FLOAT"
                    },
                    "value": {
                        "tensor": {
                            "dtype": "DT_FLOAT",
                            "tensorShape": {
                                "dim": [
                                    {
                                        "size": "576"
                                    }
                                ]
                            }
                        }
                    }
                }
            },
            {
                "name": "PartitionedCall/transpose_134/perm",
                "op": "Const",
                "attr": {
                    "dtype": {
                        "type": "DT_INT32"
                    },
                    "value": {
                        "tensor": {
                            "dtype": "DT_INT32",
                            "tensorShape": {
                                "dim": [
                                    {
                                        "size": "4"
                                    }
                                ]
                            }
                        }
                    }
                }
            },
            {
                "name": "PartitionedCall/mul_22/y",
                "op": "Const",
                "attr": {
                    "value": {
                        "tensor": {
                            "dtype": "DT_FLOAT",
                            "tensorShape": {}
                        }
                    },
                    "dtype": {
                        "type": "DT_FLOAT"
                    }
                }
            },
            {
                "name": "PartitionedCall/add_67/y",
                "op": "Const",
                "attr": {
                    "dtype": {
                        "type": "DT_FLOAT"
                    },
                    "value": {
                        "tensor": {
                            "dtype": "DT_FLOAT",
                            "tensorShape": {}
                        }
                    }
                }
            },
            {
                "name": "PartitionedCall/clip_by_value_22/Minimum/y",
                "op": "Const",
                "attr": {
                    "value": {
                        "tensor": {
                            "dtype": "DT_FLOAT",
                            "tensorShape": {}
                        }
                    },
                    "dtype": {
                        "type": "DT_FLOAT"
                    }
                }
            },
            {
                "name": "PartitionedCall/clip_by_value_22/y",
                "op": "Const",
                "attr": {
                    "value": {
                        "tensor": {
                            "dtype": "DT_FLOAT",
                            "tensorShape": {}
                        }
                    },
                    "dtype": {
                        "type": "DT_FLOAT"
                    }
                }
            },
            {
                "name": "PartitionedCall/split_39",
                "op": "Const",
                "attr": {
                    "value": {
                        "tensor": {
                            "dtype": "DT_FLOAT",
                            "tensorShape": {
                                "dim": [
                                    {
                                        "size": "1"
                                    },
                                    {
                                        "size": "1"
                                    },
                                    {
                                        "size": "96"
                                    },
                                    {
                                        "size": "576"
                                    }
                                ]
                            }
                        }
                    },
                    "dtype": {
                        "type": "DT_FLOAT"
                    }
                }
            },
            {
                "name": "PartitionedCall/onnx_tf_prefix_/Constant_86",
                "op": "Const",
                "attr": {
                    "dtype": {
                        "type": "DT_FLOAT"
                    },
                    "value": {
                        "tensor": {
                            "dtype": "DT_FLOAT",
                            "tensorShape": {
                                "dim": [
                                    {
                                        "size": "576"
                                    }
                                ]
                            }
                        }
                    }
                }
            },
            {
                "name": "PartitionedCall/transpose_125/perm",
                "op": "Const",
                "attr": {
                    "dtype": {
                        "type": "DT_INT32"
                    },
                    "value": {
                        "tensor": {
                            "dtype": "DT_INT32",
                            "tensorShape": {
                                "dim": [
                                    {
                                        "size": "4"
                                    }
                                ]
                            }
                        }
                    }
                }
            },
            {
                "name": "PartitionedCall/mul_20/y",
                "op": "Const",
                "attr": {
                    "dtype": {
                        "type": "DT_FLOAT"
                    },
                    "value": {
                        "tensor": {
                            "dtype": "DT_FLOAT",
                            "tensorShape": {}
                        }
                    }
                }
            },
            {
                "name": "PartitionedCall/add_62/y",
                "op": "Const",
                "attr": {
                    "value": {
                        "tensor": {
                            "dtype": "DT_FLOAT",
                            "tensorShape": {}
                        }
                    },
                    "dtype": {
                        "type": "DT_FLOAT"
                    }
                }
            },
            {
                "name": "PartitionedCall/clip_by_value_20/Minimum/y",
                "op": "Const",
                "attr": {
                    "dtype": {
                        "type": "DT_FLOAT"
                    },
                    "value": {
                        "tensor": {
                            "dtype": "DT_FLOAT",
                            "tensorShape": {}
                        }
                    }
                }
            },
            {
                "name": "PartitionedCall/clip_by_value_20/y",
                "op": "Const",
                "attr": {
                    "value": {
                        "tensor": {
                            "dtype": "DT_FLOAT",
                            "tensorShape": {}
                        }
                    },
                    "dtype": {
                        "type": "DT_FLOAT"
                    }
                }
            },
            {
                "name": "PartitionedCall/Const_10",
                "op": "Const",
                "attr": {
                    "dtype": {
                        "type": "DT_INT32"
                    },
                    "value": {
                        "tensor": {
                            "dtype": "DT_INT32",
                            "tensorShape": {
                                "dim": [
                                    {
                                        "size": "4"
                                    },
                                    {
                                        "size": "2"
                                    }
                                ]
                            }
                        }
                    }
                }
            },
            {
                "name": "PartitionedCall/transpose_127/perm",
                "op": "Const",
                "attr": {
                    "value": {
                        "tensor": {
                            "dtype": "DT_INT32",
                            "tensorShape": {
                                "dim": [
                                    {
                                        "size": "4"
                                    }
                                ]
                            }
                        }
                    },
                    "dtype": {
                        "type": "DT_INT32"
                    }
                }
            },
            {
                "name": "PartitionedCall/Reshape_9",
                "op": "Const",
                "attr": {
                    "dtype": {
                        "type": "DT_FLOAT"
                    },
                    "value": {
                        "tensor": {
                            "dtype": "DT_FLOAT",
                            "tensorShape": {
                                "dim": [
                                    {
                                        "size": "5"
                                    },
                                    {
                                        "size": "5"
                                    },
                                    {
                                        "size": "576"
                                    },
                                    {
                                        "size": "1"
                                    }
                                ]
                            }
                        }
                    }
                }
            },
            {
                "name": "PartitionedCall/onnx_tf_prefix_/Constant_88",
                "op": "Const",
                "attr": {
                    "value": {
                        "tensor": {
                            "dtype": "DT_FLOAT",
                            "tensorShape": {
                                "dim": [
                                    {
                                        "size": "576"
                                    }
                                ]
                            }
                        }
                    },
                    "dtype": {
                        "type": "DT_FLOAT"
                    }
                }
            },
            {
                "name": "PartitionedCall/transpose_128/perm",
                "op": "Const",
                "attr": {
                    "value": {
                        "tensor": {
                            "dtype": "DT_INT32",
                            "tensorShape": {
                                "dim": [
                                    {
                                        "size": "4"
                                    }
                                ]
                            }
                        }
                    },
                    "dtype": {
                        "type": "DT_INT32"
                    }
                }
            },
            {
                "name": "PartitionedCall/mul_21/y",
                "op": "Const",
                "attr": {
                    "dtype": {
                        "type": "DT_FLOAT"
                    },
                    "value": {
                        "tensor": {
                            "dtype": "DT_FLOAT",
                            "tensorShape": {}
                        }
                    }
                }
            },
            {
                "name": "PartitionedCall/add_64/y",
                "op": "Const",
                "attr": {
                    "dtype": {
                        "type": "DT_FLOAT"
                    },
                    "value": {
                        "tensor": {
                            "dtype": "DT_FLOAT",
                            "tensorShape": {}
                        }
                    }
                }
            },
            {
                "name": "PartitionedCall/clip_by_value_21/Minimum/y",
                "op": "Const",
                "attr": {
                    "value": {
                        "tensor": {
                            "dtype": "DT_FLOAT",
                            "tensorShape": {}
                        }
                    },
                    "dtype": {
                        "type": "DT_FLOAT"
                    }
                }
            },
            {
                "name": "PartitionedCall/clip_by_value_21/y",
                "op": "Const",
                "attr": {
                    "value": {
                        "tensor": {
                            "dtype": "DT_FLOAT",
                            "tensorShape": {}
                        }
                    },
                    "dtype": {
                        "type": "DT_FLOAT"
                    }
                }
            },
            {
                "name": "PartitionedCall/transpose_136/perm",
                "op": "Const",
                "attr": {
                    "value": {
                        "tensor": {
                            "dtype": "DT_INT32",
                            "tensorShape": {
                                "dim": [
                                    {
                                        "size": "4"
                                    }
                                ]
                            }
                        }
                    },
                    "dtype": {
                        "type": "DT_INT32"
                    }
                }
            },
            {
                "name": "PartitionedCall/split_43",
                "op": "Const",
                "attr": {
                    "dtype": {
                        "type": "DT_FLOAT"
                    },
                    "value": {
                        "tensor": {
                            "dtype": "DT_FLOAT",
                            "tensorShape": {
                                "dim": [
                                    {
                                        "size": "1"
                                    },
                                    {
                                        "size": "1"
                                    },
                                    {
                                        "size": "576"
                                    },
                                    {
                                        "size": "96"
                                    }
                                ]
                            }
                        }
                    }
                }
            },
            {
                "name": "PartitionedCall/onnx_tf_prefix_/Constant_94",
                "op": "Const",
                "attr": {
                    "value": {
                        "tensor": {
                            "dtype": "DT_FLOAT",
                            "tensorShape": {
                                "dim": [
                                    {
                                        "size": "96"
                                    }
                                ]
                            }
                        }
                    },
                    "dtype": {
                        "type": "DT_FLOAT"
                    }
                }
            },
            {
                "name": "PartitionedCall/transpose_137/perm",
                "op": "Const",
                "attr": {
                    "value": {
                        "tensor": {
                            "dtype": "DT_INT32",
                            "tensorShape": {
                                "dim": [
                                    {
                                        "size": "4"
                                    }
                                ]
                            }
                        }
                    },
                    "dtype": {
                        "type": "DT_INT32"
                    }
                }
            },
            {
                "name": "ConstantFolding/PartitionedCall/split_35-folded-1",
                "op": "Const",
                "attr": {
                    "value": {
                        "tensor": {
                            "dtype": "DT_INT32",
                            "tensorShape": {
                                "dim": [
                                    {
                                        "size": "2"
                                    }
                                ]
                            }
                        }
                    },
                    "dtype": {
                        "type": "DT_INT32"
                    }
                }
            },
            {
                "name": "PartitionedCall/transpose_115/perm",
                "op": "Const",
                "attr": {
                    "dtype": {
                        "type": "DT_INT32"
                    },
                    "value": {
                        "tensor": {
                            "dtype": "DT_INT32",
                            "tensorShape": {
                                "dim": [
                                    {
                                        "size": "4"
                                    }
                                ]
                            }
                        }
                    }
                }
            },
            {
                "name": "PartitionedCall/split_36",
                "op": "Const",
                "attr": {
                    "dtype": {
                        "type": "DT_FLOAT"
                    },
                    "value": {
                        "tensor": {
                            "dtype": "DT_FLOAT",
                            "tensorShape": {
                                "dim": [
                                    {
                                        "size": "1"
                                    },
                                    {
                                        "size": "1"
                                    },
                                    {
                                        "size": "288"
                                    },
                                    {
                                        "size": "72"
                                    }
                                ]
                            }
                        }
                    }
                }
            },
            {
                "name": "PartitionedCall/onnx_tf_prefix_/Constant_80",
                "op": "Const",
                "attr": {
                    "dtype": {
                        "type": "DT_FLOAT"
                    },
                    "value": {
                        "tensor": {
                            "dtype": "DT_FLOAT",
                            "tensorShape": {
                                "dim": [
                                    {
                                        "size": "72"
                                    }
                                ]
                            }
                        }
                    }
                }
            },
            {
                "name": "PartitionedCall/transpose_116/perm",
                "op": "Const",
                "attr": {
                    "dtype": {
                        "type": "DT_INT32"
                    },
                    "value": {
                        "tensor": {
                            "dtype": "DT_INT32",
                            "tensorShape": {
                                "dim": [
                                    {
                                        "size": "4"
                                    }
                                ]
                            }
                        }
                    }
                }
            },
            {
                "name": "PartitionedCall/transpose_118/perm",
                "op": "Const",
                "attr": {
                    "dtype": {
                        "type": "DT_INT32"
                    },
                    "value": {
                        "tensor": {
                            "dtype": "DT_INT32",
                            "tensorShape": {
                                "dim": [
                                    {
                                        "size": "4"
                                    }
                                ]
                            }
                        }
                    }
                }
            },
            {
                "name": "PartitionedCall/split_37",
                "op": "Const",
                "attr": {
                    "dtype": {
                        "type": "DT_FLOAT"
                    },
                    "value": {
                        "tensor": {
                            "dtype": "DT_FLOAT",
                            "tensorShape": {
                                "dim": [
                                    {
                                        "size": "1"
                                    },
                                    {
                                        "size": "1"
                                    },
                                    {
                                        "size": "72"
                                    },
                                    {
                                        "size": "288"
                                    }
                                ]
                            }
                        }
                    }
                }
            },
            {
                "name": "PartitionedCall/onnx_tf_prefix_/Constant_82",
                "op": "Const",
                "attr": {
                    "value": {
                        "tensor": {
                            "dtype": "DT_FLOAT",
                            "tensorShape": {
                                "dim": [
                                    {
                                        "size": "288"
                                    }
                                ]
                            }
                        }
                    },
                    "dtype": {
                        "type": "DT_FLOAT"
                    }
                }
            },
            {
                "name": "PartitionedCall/transpose_119/perm",
                "op": "Const",
                "attr": {
                    "value": {
                        "tensor": {
                            "dtype": "DT_INT32",
                            "tensorShape": {
                                "dim": [
                                    {
                                        "size": "4"
                                    }
                                ]
                            }
                        }
                    },
                    "dtype": {
                        "type": "DT_INT32"
                    }
                }
            },
            {
                "name": "PartitionedCall/mul_19/y",
                "op": "Const",
                "attr": {
                    "value": {
                        "tensor": {
                            "dtype": "DT_FLOAT",
                            "tensorShape": {}
                        }
                    },
                    "dtype": {
                        "type": "DT_FLOAT"
                    }
                }
            },
            {
                "name": "PartitionedCall/add_59/y",
                "op": "Const",
                "attr": {
                    "dtype": {
                        "type": "DT_FLOAT"
                    },
                    "value": {
                        "tensor": {
                            "dtype": "DT_FLOAT",
                            "tensorShape": {}
                        }
                    }
                }
            },
            {
                "name": "PartitionedCall/clip_by_value_19/Minimum/y",
                "op": "Const",
                "attr": {
                    "dtype": {
                        "type": "DT_FLOAT"
                    },
                    "value": {
                        "tensor": {
                            "dtype": "DT_FLOAT",
                            "tensorShape": {}
                        }
                    }
                }
            },
            {
                "name": "PartitionedCall/clip_by_value_19/y",
                "op": "Const",
                "attr": {
                    "dtype": {
                        "type": "DT_FLOAT"
                    },
                    "value": {
                        "tensor": {
                            "dtype": "DT_FLOAT",
                            "tensorShape": {}
                        }
                    }
                }
            },
            {
                "name": "ConstantFolding/PartitionedCall/split_30-folded-1",
                "op": "Const",
                "attr": {
                    "dtype": {
                        "type": "DT_INT32"
                    },
                    "value": {
                        "tensor": {
                            "dtype": "DT_INT32",
                            "tensorShape": {
                                "dim": [
                                    {
                                        "size": "2"
                                    }
                                ]
                            }
                        }
                    }
                }
            },
            {
                "name": "PartitionedCall/transpose_100/perm",
                "op": "Const",
                "attr": {
                    "dtype": {
                        "type": "DT_INT32"
                    },
                    "value": {
                        "tensor": {
                            "dtype": "DT_INT32",
                            "tensorShape": {
                                "dim": [
                                    {
                                        "size": "4"
                                    }
                                ]
                            }
                        }
                    }
                }
            },
            {
                "name": "PartitionedCall/split_31",
                "op": "Const",
                "attr": {
                    "value": {
                        "tensor": {
                            "dtype": "DT_FLOAT",
                            "tensorShape": {
                                "dim": [
                                    {
                                        "size": "1"
                                    },
                                    {
                                        "size": "1"
                                    },
                                    {
                                        "size": "144"
                                    },
                                    {
                                        "size": "40"
                                    }
                                ]
                            }
                        }
                    },
                    "dtype": {
                        "type": "DT_FLOAT"
                    }
                }
            },
            {
                "name": "PartitionedCall/onnx_tf_prefix_/Constant_70",
                "op": "Const",
                "attr": {
                    "value": {
                        "tensor": {
                            "dtype": "DT_FLOAT",
                            "tensorShape": {
                                "dim": [
                                    {
                                        "size": "40"
                                    }
                                ]
                            }
                        }
                    },
                    "dtype": {
                        "type": "DT_FLOAT"
                    }
                }
            },
            {
                "name": "PartitionedCall/transpose_101/perm",
                "op": "Const",
                "attr": {
                    "value": {
                        "tensor": {
                            "dtype": "DT_INT32",
                            "tensorShape": {
                                "dim": [
                                    {
                                        "size": "4"
                                    }
                                ]
                            }
                        }
                    },
                    "dtype": {
                        "type": "DT_INT32"
                    }
                }
            },
            {
                "name": "PartitionedCall/transpose_103/perm",
                "op": "Const",
                "attr": {
                    "value": {
                        "tensor": {
                            "dtype": "DT_INT32",
                            "tensorShape": {
                                "dim": [
                                    {
                                        "size": "4"
                                    }
                                ]
                            }
                        }
                    },
                    "dtype": {
                        "type": "DT_INT32"
                    }
                }
            },
            {
                "name": "PartitionedCall/split_32",
                "op": "Const",
                "attr": {
                    "value": {
                        "tensor": {
                            "dtype": "DT_FLOAT",
                            "tensorShape": {
                                "dim": [
                                    {
                                        "size": "1"
                                    },
                                    {
                                        "size": "1"
                                    },
                                    {
                                        "size": "40"
                                    },
                                    {
                                        "size": "144"
                                    }
                                ]
                            }
                        }
                    },
                    "dtype": {
                        "type": "DT_FLOAT"
                    }
                }
            },
            {
                "name": "PartitionedCall/onnx_tf_prefix_/Constant_72",
                "op": "Const",
                "attr": {
                    "value": {
                        "tensor": {
                            "dtype": "DT_FLOAT",
                            "tensorShape": {
                                "dim": [
                                    {
                                        "size": "144"
                                    }
                                ]
                            }
                        }
                    },
                    "dtype": {
                        "type": "DT_FLOAT"
                    }
                }
            },
            {
                "name": "PartitionedCall/transpose_104/perm",
                "op": "Const",
                "attr": {
                    "value": {
                        "tensor": {
                            "dtype": "DT_INT32",
                            "tensorShape": {
                                "dim": [
                                    {
                                        "size": "4"
                                    }
                                ]
                            }
                        }
                    },
                    "dtype": {
                        "type": "DT_INT32"
                    }
                }
            },
            {
                "name": "PartitionedCall/mul_16/y",
                "op": "Const",
                "attr": {
                    "value": {
                        "tensor": {
                            "dtype": "DT_FLOAT",
                            "tensorShape": {}
                        }
                    },
                    "dtype": {
                        "type": "DT_FLOAT"
                    }
                }
            },
            {
                "name": "PartitionedCall/add_51/y",
                "op": "Const",
                "attr": {
                    "value": {
                        "tensor": {
                            "dtype": "DT_FLOAT",
                            "tensorShape": {}
                        }
                    },
                    "dtype": {
                        "type": "DT_FLOAT"
                    }
                }
            },
            {
                "name": "PartitionedCall/clip_by_value_16/Minimum/y",
                "op": "Const",
                "attr": {
                    "value": {
                        "tensor": {
                            "dtype": "DT_FLOAT",
                            "tensorShape": {}
                        }
                    },
                    "dtype": {
                        "type": "DT_FLOAT"
                    }
                }
            },
            {
                "name": "PartitionedCall/clip_by_value_16/y",
                "op": "Const",
                "attr": {
                    "dtype": {
                        "type": "DT_FLOAT"
                    },
                    "value": {
                        "tensor": {
                            "dtype": "DT_FLOAT",
                            "tensorShape": {}
                        }
                    }
                }
            },
            {
                "name": "PartitionedCall/split_29",
                "op": "Const",
                "attr": {
                    "value": {
                        "tensor": {
                            "dtype": "DT_FLOAT",
                            "tensorShape": {
                                "dim": [
                                    {
                                        "size": "1"
                                    },
                                    {
                                        "size": "1"
                                    },
                                    {
                                        "size": "48"
                                    },
                                    {
                                        "size": "144"
                                    }
                                ]
                            }
                        }
                    },
                    "dtype": {
                        "type": "DT_FLOAT"
                    }
                }
            },
            {
                "name": "PartitionedCall/onnx_tf_prefix_/Constant_66",
                "op": "Const",
                "attr": {
                    "value": {
                        "tensor": {
                            "dtype": "DT_FLOAT",
                            "tensorShape": {
                                "dim": [
                                    {
                                        "size": "144"
                                    }
                                ]
                            }
                        }
                    },
                    "dtype": {
                        "type": "DT_FLOAT"
                    }
                }
            },
            {
                "name": "PartitionedCall/transpose_95/perm",
                "op": "Const",
                "attr": {
                    "value": {
                        "tensor": {
                            "dtype": "DT_INT32",
                            "tensorShape": {
                                "dim": [
                                    {
                                        "size": "4"
                                    }
                                ]
                            }
                        }
                    },
                    "dtype": {
                        "type": "DT_INT32"
                    }
                }
            },
            {
                "name": "PartitionedCall/mul_14/y",
                "op": "Const",
                "attr": {
                    "dtype": {
                        "type": "DT_FLOAT"
                    },
                    "value": {
                        "tensor": {
                            "dtype": "DT_FLOAT",
                            "tensorShape": {}
                        }
                    }
                }
            },
            {
                "name": "PartitionedCall/add_46/y",
                "op": "Const",
                "attr": {
                    "dtype": {
                        "type": "DT_FLOAT"
                    },
                    "value": {
                        "tensor": {
                            "dtype": "DT_FLOAT",
                            "tensorShape": {}
                        }
                    }
                }
            },
            {
                "name": "PartitionedCall/clip_by_value_14/Minimum/y",
                "op": "Const",
                "attr": {
                    "value": {
                        "tensor": {
                            "dtype": "DT_FLOAT",
                            "tensorShape": {}
                        }
                    },
                    "dtype": {
                        "type": "DT_FLOAT"
                    }
                }
            },
            {
                "name": "PartitionedCall/clip_by_value_14/y",
                "op": "Const",
                "attr": {
                    "value": {
                        "tensor": {
                            "dtype": "DT_FLOAT",
                            "tensorShape": {}
                        }
                    },
                    "dtype": {
                        "type": "DT_FLOAT"
                    }
                }
            },
            {
                "name": "PartitionedCall/Const_8",
                "op": "Const",
                "attr": {
                    "value": {
                        "tensor": {
                            "dtype": "DT_INT32",
                            "tensorShape": {
                                "dim": [
                                    {
                                        "size": "4"
                                    },
                                    {
                                        "size": "2"
                                    }
                                ]
                            }
                        }
                    },
                    "dtype": {
                        "type": "DT_INT32"
                    }
                }
            },
            {
                "name": "PartitionedCall/transpose_97/perm",
                "op": "Const",
                "attr": {
                    "value": {
                        "tensor": {
                            "dtype": "DT_INT32",
                            "tensorShape": {
                                "dim": [
                                    {
                                        "size": "4"
                                    }
                                ]
                            }
                        }
                    },
                    "dtype": {
                        "type": "DT_INT32"
                    }
                }
            },
            {
                "name": "PartitionedCall/Reshape_7",
                "op": "Const",
                "attr": {
                    "value": {
                        "tensor": {
                            "dtype": "DT_FLOAT",
                            "tensorShape": {
                                "dim": [
                                    {
                                        "size": "5"
                                    },
                                    {
                                        "size": "5"
                                    },
                                    {
                                        "size": "144"
                                    },
                                    {
                                        "size": "1"
                                    }
                                ]
                            }
                        }
                    },
                    "dtype": {
                        "type": "DT_FLOAT"
                    }
                }
            },
            {
                "name": "PartitionedCall/onnx_tf_prefix_/Constant_68",
                "op": "Const",
                "attr": {
                    "value": {
                        "tensor": {
                            "dtype": "DT_FLOAT",
                            "tensorShape": {
                                "dim": [
                                    {
                                        "size": "144"
                                    }
                                ]
                            }
                        }
                    },
                    "dtype": {
                        "type": "DT_FLOAT"
                    }
                }
            },
            {
                "name": "PartitionedCall/transpose_98/perm",
                "op": "Const",
                "attr": {
                    "value": {
                        "tensor": {
                            "dtype": "DT_INT32",
                            "tensorShape": {
                                "dim": [
                                    {
                                        "size": "4"
                                    }
                                ]
                            }
                        }
                    },
                    "dtype": {
                        "type": "DT_INT32"
                    }
                }
            },
            {
                "name": "PartitionedCall/mul_15/y",
                "op": "Const",
                "attr": {
                    "dtype": {
                        "type": "DT_FLOAT"
                    },
                    "value": {
                        "tensor": {
                            "dtype": "DT_FLOAT",
                            "tensorShape": {}
                        }
                    }
                }
            },
            {
                "name": "PartitionedCall/add_48/y",
                "op": "Const",
                "attr": {
                    "dtype": {
                        "type": "DT_FLOAT"
                    },
                    "value": {
                        "tensor": {
                            "dtype": "DT_FLOAT",
                            "tensorShape": {}
                        }
                    }
                }
            },
            {
                "name": "PartitionedCall/clip_by_value_15/Minimum/y",
                "op": "Const",
                "attr": {
                    "dtype": {
                        "type": "DT_FLOAT"
                    },
                    "value": {
                        "tensor": {
                            "dtype": "DT_FLOAT",
                            "tensorShape": {}
                        }
                    }
                }
            },
            {
                "name": "PartitionedCall/clip_by_value_15/y",
                "op": "Const",
                "attr": {
                    "value": {
                        "tensor": {
                            "dtype": "DT_FLOAT",
                            "tensorShape": {}
                        }
                    },
                    "dtype": {
                        "type": "DT_FLOAT"
                    }
                }
            },
            {
                "name": "PartitionedCall/transpose_106/perm",
                "op": "Const",
                "attr": {
                    "value": {
                        "tensor": {
                            "dtype": "DT_INT32",
                            "tensorShape": {
                                "dim": [
                                    {
                                        "size": "4"
                                    }
                                ]
                            }
                        }
                    },
                    "dtype": {
                        "type": "DT_INT32"
                    }
                }
            },
            {
                "name": "PartitionedCall/split_33",
                "op": "Const",
                "attr": {
                    "value": {
                        "tensor": {
                            "dtype": "DT_FLOAT",
                            "tensorShape": {
                                "dim": [
                                    {
                                        "size": "1"
                                    },
                                    {
                                        "size": "1"
                                    },
                                    {
                                        "size": "144"
                                    },
                                    {
                                        "size": "48"
                                    }
                                ]
                            }
                        }
                    },
                    "dtype": {
                        "type": "DT_FLOAT"
                    }
                }
            },
            {
                "name": "PartitionedCall/onnx_tf_prefix_/Constant_74",
                "op": "Const",
                "attr": {
                    "dtype": {
                        "type": "DT_FLOAT"
                    },
                    "value": {
                        "tensor": {
                            "dtype": "DT_FLOAT",
                            "tensorShape": {
                                "dim": [
                                    {
                                        "size": "48"
                                    }
                                ]
                            }
                        }
                    }
                }
            },
            {
                "name": "PartitionedCall/transpose_107/perm",
                "op": "Const",
                "attr": {
                    "dtype": {
                        "type": "DT_INT32"
                    },
                    "value": {
                        "tensor": {
                            "dtype": "DT_INT32",
                            "tensorShape": {
                                "dim": [
                                    {
                                        "size": "4"
                                    }
                                ]
                            }
                        }
                    }
                }
            },
            {
                "name": "ConstantFolding/PartitionedCall/split_25-folded-1",
                "op": "Const",
                "attr": {
                    "value": {
                        "tensor": {
                            "dtype": "DT_INT32",
                            "tensorShape": {
                                "dim": [
                                    {
                                        "size": "2"
                                    }
                                ]
                            }
                        }
                    },
                    "dtype": {
                        "type": "DT_INT32"
                    }
                }
            },
            {
                "name": "PartitionedCall/transpose_85/perm",
                "op": "Const",
                "attr": {
                    "dtype": {
                        "type": "DT_INT32"
                    },
                    "value": {
                        "tensor": {
                            "dtype": "DT_INT32",
                            "tensorShape": {
                                "dim": [
                                    {
                                        "size": "4"
                                    }
                                ]
                            }
                        }
                    }
                }
            },
            {
                "name": "PartitionedCall/split_26",
                "op": "Const",
                "attr": {
                    "dtype": {
                        "type": "DT_FLOAT"
                    },
                    "value": {
                        "tensor": {
                            "dtype": "DT_FLOAT",
                            "tensorShape": {
                                "dim": [
                                    {
                                        "size": "1"
                                    },
                                    {
                                        "size": "1"
                                    },
                                    {
                                        "size": "120"
                                    },
                                    {
                                        "size": "32"
                                    }
                                ]
                            }
                        }
                    }
                }
            },
            {
                "name": "PartitionedCall/onnx_tf_prefix_/Constant_60",
                "op": "Const",
                "attr": {
                    "dtype": {
                        "type": "DT_FLOAT"
                    },
                    "value": {
                        "tensor": {
                            "dtype": "DT_FLOAT",
                            "tensorShape": {
                                "dim": [
                                    {
                                        "size": "32"
                                    }
                                ]
                            }
                        }
                    }
                }
            },
            {
                "name": "PartitionedCall/transpose_86/perm",
                "op": "Const",
                "attr": {
                    "value": {
                        "tensor": {
                            "dtype": "DT_INT32",
                            "tensorShape": {
                                "dim": [
                                    {
                                        "size": "4"
                                    }
                                ]
                            }
                        }
                    },
                    "dtype": {
                        "type": "DT_INT32"
                    }
                }
            },
            {
                "name": "PartitionedCall/transpose_88/perm",
                "op": "Const",
                "attr": {
                    "value": {
                        "tensor": {
                            "dtype": "DT_INT32",
                            "tensorShape": {
                                "dim": [
                                    {
                                        "size": "4"
                                    }
                                ]
                            }
                        }
                    },
                    "dtype": {
                        "type": "DT_INT32"
                    }
                }
            },
            {
                "name": "PartitionedCall/split_27",
                "op": "Const",
                "attr": {
                    "value": {
                        "tensor": {
                            "dtype": "DT_FLOAT",
                            "tensorShape": {
                                "dim": [
                                    {
                                        "size": "1"
                                    },
                                    {
                                        "size": "1"
                                    },
                                    {
                                        "size": "32"
                                    },
                                    {
                                        "size": "120"
                                    }
                                ]
                            }
                        }
                    },
                    "dtype": {
                        "type": "DT_FLOAT"
                    }
                }
            },
            {
                "name": "PartitionedCall/onnx_tf_prefix_/Constant_62",
                "op": "Const",
                "attr": {
                    "value": {
                        "tensor": {
                            "dtype": "DT_FLOAT",
                            "tensorShape": {
                                "dim": [
                                    {
                                        "size": "120"
                                    }
                                ]
                            }
                        }
                    },
                    "dtype": {
                        "type": "DT_FLOAT"
                    }
                }
            },
            {
                "name": "PartitionedCall/transpose_89/perm",
                "op": "Const",
                "attr": {
                    "value": {
                        "tensor": {
                            "dtype": "DT_INT32",
                            "tensorShape": {
                                "dim": [
                                    {
                                        "size": "4"
                                    }
                                ]
                            }
                        }
                    },
                    "dtype": {
                        "type": "DT_INT32"
                    }
                }
            },
            {
                "name": "PartitionedCall/mul_13/y",
                "op": "Const",
                "attr": {
                    "value": {
                        "tensor": {
                            "dtype": "DT_FLOAT",
                            "tensorShape": {}
                        }
                    },
                    "dtype": {
                        "type": "DT_FLOAT"
                    }
                }
            },
            {
                "name": "PartitionedCall/add_43/y",
                "op": "Const",
                "attr": {
                    "value": {
                        "tensor": {
                            "dtype": "DT_FLOAT",
                            "tensorShape": {}
                        }
                    },
                    "dtype": {
                        "type": "DT_FLOAT"
                    }
                }
            },
            {
                "name": "PartitionedCall/clip_by_value_13/Minimum/y",
                "op": "Const",
                "attr": {
                    "dtype": {
                        "type": "DT_FLOAT"
                    },
                    "value": {
                        "tensor": {
                            "dtype": "DT_FLOAT",
                            "tensorShape": {}
                        }
                    }
                }
            },
            {
                "name": "PartitionedCall/clip_by_value_13/y",
                "op": "Const",
                "attr": {
                    "value": {
                        "tensor": {
                            "dtype": "DT_FLOAT",
                            "tensorShape": {}
                        }
                    },
                    "dtype": {
                        "type": "DT_FLOAT"
                    }
                }
            },
            {
                "name": "ConstantFolding/PartitionedCall/split_20-folded-1",
                "op": "Const",
                "attr": {
                    "value": {
                        "tensor": {
                            "dtype": "DT_INT32",
                            "tensorShape": {
                                "dim": [
                                    {
                                        "size": "2"
                                    }
                                ]
                            }
                        }
                    },
                    "dtype": {
                        "type": "DT_INT32"
                    }
                }
            },
            {
                "name": "PartitionedCall/transpose_70/perm",
                "op": "Const",
                "attr": {
                    "dtype": {
                        "type": "DT_INT32"
                    },
                    "value": {
                        "tensor": {
                            "dtype": "DT_INT32",
                            "tensorShape": {
                                "dim": [
                                    {
                                        "size": "4"
                                    }
                                ]
                            }
                        }
                    }
                }
            },
            {
                "name": "PartitionedCall/split_21",
                "op": "Const",
                "attr": {
                    "value": {
                        "tensor": {
                            "dtype": "DT_FLOAT",
                            "tensorShape": {
                                "dim": [
                                    {
                                        "size": "1"
                                    },
                                    {
                                        "size": "1"
                                    },
                                    {
                                        "size": "240"
                                    },
                                    {
                                        "size": "64"
                                    }
                                ]
                            }
                        }
                    },
                    "dtype": {
                        "type": "DT_FLOAT"
                    }
                }
            },
            {
                "name": "PartitionedCall/onnx_tf_prefix_/Constant_50",
                "op": "Const",
                "attr": {
                    "dtype": {
                        "type": "DT_FLOAT"
                    },
                    "value": {
                        "tensor": {
                            "dtype": "DT_FLOAT",
                            "tensorShape": {
                                "dim": [
                                    {
                                        "size": "64"
                                    }
                                ]
                            }
                        }
                    }
                }
            },
            {
                "name": "PartitionedCall/transpose_71/perm",
                "op": "Const",
                "attr": {
                    "dtype": {
                        "type": "DT_INT32"
                    },
                    "value": {
                        "tensor": {
                            "dtype": "DT_INT32",
                            "tensorShape": {
                                "dim": [
                                    {
                                        "size": "4"
                                    }
                                ]
                            }
                        }
                    }
                }
            },
            {
                "name": "PartitionedCall/transpose_73/perm",
                "op": "Const",
                "attr": {
                    "dtype": {
                        "type": "DT_INT32"
                    },
                    "value": {
                        "tensor": {
                            "dtype": "DT_INT32",
                            "tensorShape": {
                                "dim": [
                                    {
                                        "size": "4"
                                    }
                                ]
                            }
                        }
                    }
                }
            },
            {
                "name": "PartitionedCall/split_22",
                "op": "Const",
                "attr": {
                    "value": {
                        "tensor": {
                            "dtype": "DT_FLOAT",
                            "tensorShape": {
                                "dim": [
                                    {
                                        "size": "1"
                                    },
                                    {
                                        "size": "1"
                                    },
                                    {
                                        "size": "64"
                                    },
                                    {
                                        "size": "240"
                                    }
                                ]
                            }
                        }
                    },
                    "dtype": {
                        "type": "DT_FLOAT"
                    }
                }
            },
            {
                "name": "PartitionedCall/onnx_tf_prefix_/Constant_52",
                "op": "Const",
                "attr": {
                    "value": {
                        "tensor": {
                            "dtype": "DT_FLOAT",
                            "tensorShape": {
                                "dim": [
                                    {
                                        "size": "240"
                                    }
                                ]
                            }
                        }
                    },
                    "dtype": {
                        "type": "DT_FLOAT"
                    }
                }
            },
            {
                "name": "PartitionedCall/transpose_74/perm",
                "op": "Const",
                "attr": {
                    "value": {
                        "tensor": {
                            "dtype": "DT_INT32",
                            "tensorShape": {
                                "dim": [
                                    {
                                        "size": "4"
                                    }
                                ]
                            }
                        }
                    },
                    "dtype": {
                        "type": "DT_INT32"
                    }
                }
            },
            {
                "name": "PartitionedCall/mul_10/y",
                "op": "Const",
                "attr": {
                    "value": {
                        "tensor": {
                            "dtype": "DT_FLOAT",
                            "tensorShape": {}
                        }
                    },
                    "dtype": {
                        "type": "DT_FLOAT"
                    }
                }
            },
            {
                "name": "PartitionedCall/add_35/y",
                "op": "Const",
                "attr": {
                    "dtype": {
                        "type": "DT_FLOAT"
                    },
                    "value": {
                        "tensor": {
                            "dtype": "DT_FLOAT",
                            "tensorShape": {}
                        }
                    }
                }
            },
            {
                "name": "PartitionedCall/clip_by_value_10/Minimum/y",
                "op": "Const",
                "attr": {
                    "dtype": {
                        "type": "DT_FLOAT"
                    },
                    "value": {
                        "tensor": {
                            "dtype": "DT_FLOAT",
                            "tensorShape": {}
                        }
                    }
                }
            },
            {
                "name": "PartitionedCall/clip_by_value_10/y",
                "op": "Const",
                "attr": {
                    "dtype": {
                        "type": "DT_FLOAT"
                    },
                    "value": {
                        "tensor": {
                            "dtype": "DT_FLOAT",
                            "tensorShape": {}
                        }
                    }
                }
            },
            {
                "name": "PartitionedCall/transpose_64/perm",
                "op": "Const",
                "attr": {
                    "value": {
                        "tensor": {
                            "dtype": "DT_INT32",
                            "tensorShape": {
                                "dim": [
                                    {
                                        "size": "4"
                                    }
                                ]
                            }
                        }
                    },
                    "dtype": {
                        "type": "DT_INT32"
                    }
                }
            },
            {
                "name": "PartitionedCall/split_19",
                "op": "Const",
                "attr": {
                    "dtype": {
                        "type": "DT_FLOAT"
                    },
                    "value": {
                        "tensor": {
                            "dtype": "DT_FLOAT",
                            "tensorShape": {
                                "dim": [
                                    {
                                        "size": "1"
                                    },
                                    {
                                        "size": "1"
                                    },
                                    {
                                        "size": "40"
                                    },
                                    {
                                        "size": "240"
                                    }
                                ]
                            }
                        }
                    }
                }
            },
            {
                "name": "PartitionedCall/onnx_tf_prefix_/Constant_46",
                "op": "Const",
                "attr": {
                    "value": {
                        "tensor": {
                            "dtype": "DT_FLOAT",
                            "tensorShape": {
                                "dim": [
                                    {
                                        "size": "240"
                                    }
                                ]
                            }
                        }
                    },
                    "dtype": {
                        "type": "DT_FLOAT"
                    }
                }
            },
            {
                "name": "PartitionedCall/transpose_65/perm",
                "op": "Const",
                "attr": {
                    "dtype": {
                        "type": "DT_INT32"
                    },
                    "value": {
                        "tensor": {
                            "dtype": "DT_INT32",
                            "tensorShape": {
                                "dim": [
                                    {
                                        "size": "4"
                                    }
                                ]
                            }
                        }
                    }
                }
            },
            {
                "name": "PartitionedCall/mul_8/y",
                "op": "Const",
                "attr": {
                    "value": {
                        "tensor": {
                            "dtype": "DT_FLOAT",
                            "tensorShape": {}
                        }
                    },
                    "dtype": {
                        "type": "DT_FLOAT"
                    }
                }
            },
            {
                "name": "PartitionedCall/add_30/y",
                "op": "Const",
                "attr": {
                    "value": {
                        "tensor": {
                            "dtype": "DT_FLOAT",
                            "tensorShape": {}
                        }
                    },
                    "dtype": {
                        "type": "DT_FLOAT"
                    }
                }
            },
            {
                "name": "PartitionedCall/clip_by_value_8/Minimum/y",
                "op": "Const",
                "attr": {
                    "value": {
                        "tensor": {
                            "dtype": "DT_FLOAT",
                            "tensorShape": {}
                        }
                    },
                    "dtype": {
                        "type": "DT_FLOAT"
                    }
                }
            },
            {
                "name": "PartitionedCall/clip_by_value_8/y",
                "op": "Const",
                "attr": {
                    "dtype": {
                        "type": "DT_FLOAT"
                    },
                    "value": {
                        "tensor": {
                            "dtype": "DT_FLOAT",
                            "tensorShape": {}
                        }
                    }
                }
            },
            {
                "name": "PartitionedCall/Const_6",
                "op": "Const",
                "attr": {
                    "value": {
                        "tensor": {
                            "dtype": "DT_INT32",
                            "tensorShape": {
                                "dim": [
                                    {
                                        "size": "4"
                                    },
                                    {
                                        "size": "2"
                                    }
                                ]
                            }
                        }
                    },
                    "dtype": {
                        "type": "DT_INT32"
                    }
                }
            },
            {
                "name": "PartitionedCall/transpose_67/perm",
                "op": "Const",
                "attr": {
                    "value": {
                        "tensor": {
                            "dtype": "DT_INT32",
                            "tensorShape": {
                                "dim": [
                                    {
                                        "size": "4"
                                    }
                                ]
                            }
                        }
                    },
                    "dtype": {
                        "type": "DT_INT32"
                    }
                }
            },
            {
                "name": "PartitionedCall/Reshape_5",
                "op": "Const",
                "attr": {
                    "dtype": {
                        "type": "DT_FLOAT"
                    },
                    "value": {
                        "tensor": {
                            "dtype": "DT_FLOAT",
                            "tensorShape": {
                                "dim": [
                                    {
                                        "size": "5"
                                    },
                                    {
                                        "size": "5"
                                    },
                                    {
                                        "size": "240"
                                    },
                                    {
                                        "size": "1"
                                    }
                                ]
                            }
                        }
                    }
                }
            },
            {
                "name": "PartitionedCall/onnx_tf_prefix_/Constant_48",
                "op": "Const",
                "attr": {
                    "dtype": {
                        "type": "DT_FLOAT"
                    },
                    "value": {
                        "tensor": {
                            "dtype": "DT_FLOAT",
                            "tensorShape": {
                                "dim": [
                                    {
                                        "size": "240"
                                    }
                                ]
                            }
                        }
                    }
                }
            },
            {
                "name": "PartitionedCall/transpose_68/perm",
                "op": "Const",
                "attr": {
                    "dtype": {
                        "type": "DT_INT32"
                    },
                    "value": {
                        "tensor": {
                            "dtype": "DT_INT32",
                            "tensorShape": {
                                "dim": [
                                    {
                                        "size": "4"
                                    }
                                ]
                            }
                        }
                    }
                }
            },
            {
                "name": "PartitionedCall/mul_9/y",
                "op": "Const",
                "attr": {
                    "dtype": {
                        "type": "DT_FLOAT"
                    },
                    "value": {
                        "tensor": {
                            "dtype": "DT_FLOAT",
                            "tensorShape": {}
                        }
                    }
                }
            },
            {
                "name": "PartitionedCall/add_32/y",
                "op": "Const",
                "attr": {
                    "value": {
                        "tensor": {
                            "dtype": "DT_FLOAT",
                            "tensorShape": {}
                        }
                    },
                    "dtype": {
                        "type": "DT_FLOAT"
                    }
                }
            },
            {
                "name": "PartitionedCall/clip_by_value_9/Minimum/y",
                "op": "Const",
                "attr": {
                    "value": {
                        "tensor": {
                            "dtype": "DT_FLOAT",
                            "tensorShape": {}
                        }
                    },
                    "dtype": {
                        "type": "DT_FLOAT"
                    }
                }
            },
            {
                "name": "PartitionedCall/clip_by_value_9/y",
                "op": "Const",
                "attr": {
                    "dtype": {
                        "type": "DT_FLOAT"
                    },
                    "value": {
                        "tensor": {
                            "dtype": "DT_FLOAT",
                            "tensorShape": {}
                        }
                    }
                }
            },
            {
                "name": "PartitionedCall/transpose_76/perm",
                "op": "Const",
                "attr": {
                    "dtype": {
                        "type": "DT_INT32"
                    },
                    "value": {
                        "tensor": {
                            "dtype": "DT_INT32",
                            "tensorShape": {
                                "dim": [
                                    {
                                        "size": "4"
                                    }
                                ]
                            }
                        }
                    }
                }
            },
            {
                "name": "PartitionedCall/split_23",
                "op": "Const",
                "attr": {
                    "value": {
                        "tensor": {
                            "dtype": "DT_FLOAT",
                            "tensorShape": {
                                "dim": [
                                    {
                                        "size": "1"
                                    },
                                    {
                                        "size": "1"
                                    },
                                    {
                                        "size": "240"
                                    },
                                    {
                                        "size": "40"
                                    }
                                ]
                            }
                        }
                    },
                    "dtype": {
                        "type": "DT_FLOAT"
                    }
                }
            },
            {
                "name": "PartitionedCall/onnx_tf_prefix_/Constant_54",
                "op": "Const",
                "attr": {
                    "dtype": {
                        "type": "DT_FLOAT"
                    },
                    "value": {
                        "tensor": {
                            "dtype": "DT_FLOAT",
                            "tensorShape": {
                                "dim": [
                                    {
                                        "size": "40"
                                    }
                                ]
                            }
                        }
                    }
                }
            },
            {
                "name": "PartitionedCall/transpose_77/perm",
                "op": "Const",
                "attr": {
                    "dtype": {
                        "type": "DT_INT32"
                    },
                    "value": {
                        "tensor": {
                            "dtype": "DT_INT32",
                            "tensorShape": {
                                "dim": [
                                    {
                                        "size": "4"
                                    }
                                ]
                            }
                        }
                    }
                }
            },
            {
                "name": "ConstantFolding/PartitionedCall/split_15-folded-1",
                "op": "Const",
                "attr": {
                    "value": {
                        "tensor": {
                            "dtype": "DT_INT32",
                            "tensorShape": {
                                "dim": [
                                    {
                                        "size": "2"
                                    }
                                ]
                            }
                        }
                    },
                    "dtype": {
                        "type": "DT_INT32"
                    }
                }
            },
            {
                "name": "PartitionedCall/transpose_55/perm",
                "op": "Const",
                "attr": {
                    "dtype": {
                        "type": "DT_INT32"
                    },
                    "value": {
                        "tensor": {
                            "dtype": "DT_INT32",
                            "tensorShape": {
                                "dim": [
                                    {
                                        "size": "4"
                                    }
                                ]
                            }
                        }
                    }
                }
            },
            {
                "name": "PartitionedCall/split_16",
                "op": "Const",
                "attr": {
                    "value": {
                        "tensor": {
                            "dtype": "DT_FLOAT",
                            "tensorShape": {
                                "dim": [
                                    {
                                        "size": "1"
                                    },
                                    {
                                        "size": "1"
                                    },
                                    {
                                        "size": "240"
                                    },
                                    {
                                        "size": "64"
                                    }
                                ]
                            }
                        }
                    },
                    "dtype": {
                        "type": "DT_FLOAT"
                    }
                }
            },
            {
                "name": "PartitionedCall/onnx_tf_prefix_/Constant_40",
                "op": "Const",
                "attr": {
                    "value": {
                        "tensor": {
                            "dtype": "DT_FLOAT",
                            "tensorShape": {
                                "dim": [
                                    {
                                        "size": "64"
                                    }
                                ]
                            }
                        }
                    },
                    "dtype": {
                        "type": "DT_FLOAT"
                    }
                }
            },
            {
                "name": "PartitionedCall/transpose_56/perm",
                "op": "Const",
                "attr": {
                    "dtype": {
                        "type": "DT_INT32"
                    },
                    "value": {
                        "tensor": {
                            "dtype": "DT_INT32",
                            "tensorShape": {
                                "dim": [
                                    {
                                        "size": "4"
                                    }
                                ]
                            }
                        }
                    }
                }
            },
            {
                "name": "PartitionedCall/transpose_58/perm",
                "op": "Const",
                "attr": {
                    "value": {
                        "tensor": {
                            "dtype": "DT_INT32",
                            "tensorShape": {
                                "dim": [
                                    {
                                        "size": "4"
                                    }
                                ]
                            }
                        }
                    },
                    "dtype": {
                        "type": "DT_INT32"
                    }
                }
            },
            {
                "name": "PartitionedCall/split_17",
                "op": "Const",
                "attr": {
                    "value": {
                        "tensor": {
                            "dtype": "DT_FLOAT",
                            "tensorShape": {
                                "dim": [
                                    {
                                        "size": "1"
                                    },
                                    {
                                        "size": "1"
                                    },
                                    {
                                        "size": "64"
                                    },
                                    {
                                        "size": "240"
                                    }
                                ]
                            }
                        }
                    },
                    "dtype": {
                        "type": "DT_FLOAT"
                    }
                }
            },
            {
                "name": "PartitionedCall/onnx_tf_prefix_/Constant_42",
                "op": "Const",
                "attr": {
                    "dtype": {
                        "type": "DT_FLOAT"
                    },
                    "value": {
                        "tensor": {
                            "dtype": "DT_FLOAT",
                            "tensorShape": {
                                "dim": [
                                    {
                                        "size": "240"
                                    }
                                ]
                            }
                        }
                    }
                }
            },
            {
                "name": "PartitionedCall/transpose_59/perm",
                "op": "Const",
                "attr": {
                    "value": {
                        "tensor": {
                            "dtype": "DT_INT32",
                            "tensorShape": {
                                "dim": [
                                    {
                                        "size": "4"
                                    }
                                ]
                            }
                        }
                    },
                    "dtype": {
                        "type": "DT_INT32"
                    }
                }
            },
            {
                "name": "PartitionedCall/mul_7/y",
                "op": "Const",
                "attr": {
                    "value": {
                        "tensor": {
                            "dtype": "DT_FLOAT",
                            "tensorShape": {}
                        }
                    },
                    "dtype": {
                        "type": "DT_FLOAT"
                    }
                }
            },
            {
                "name": "PartitionedCall/add_27/y",
                "op": "Const",
                "attr": {
                    "dtype": {
                        "type": "DT_FLOAT"
                    },
                    "value": {
                        "tensor": {
                            "dtype": "DT_FLOAT",
                            "tensorShape": {}
                        }
                    }
                }
            },
            {
                "name": "PartitionedCall/clip_by_value_7/Minimum/y",
                "op": "Const",
                "attr": {
                    "value": {
                        "tensor": {
                            "dtype": "DT_FLOAT",
                            "tensorShape": {}
                        }
                    },
                    "dtype": {
                        "type": "DT_FLOAT"
                    }
                }
            },
            {
                "name": "PartitionedCall/clip_by_value_7/y",
                "op": "Const",
                "attr": {
                    "value": {
                        "tensor": {
                            "dtype": "DT_FLOAT",
                            "tensorShape": {}
                        }
                    },
                    "dtype": {
                        "type": "DT_FLOAT"
                    }
                }
            },
            {
                "name": "PartitionedCall/split_14",
                "op": "Const",
                "attr": {
                    "dtype": {
                        "type": "DT_FLOAT"
                    },
                    "value": {
                        "tensor": {
                            "dtype": "DT_FLOAT",
                            "tensorShape": {
                                "dim": [
                                    {
                                        "size": "1"
                                    },
                                    {
                                        "size": "1"
                                    },
                                    {
                                        "size": "40"
                                    },
                                    {
                                        "size": "240"
                                    }
                                ]
                            }
                        }
                    }
                }
            },
            {
                "name": "PartitionedCall/onnx_tf_prefix_/Constant_36",
                "op": "Const",
                "attr": {
                    "value": {
                        "tensor": {
                            "dtype": "DT_FLOAT",
                            "tensorShape": {
                                "dim": [
                                    {
                                        "size": "240"
                                    }
                                ]
                            }
                        }
                    },
                    "dtype": {
                        "type": "DT_FLOAT"
                    }
                }
            },
            {
                "name": "PartitionedCall/transpose_50/perm",
                "op": "Const",
                "attr": {
                    "value": {
                        "tensor": {
                            "dtype": "DT_INT32",
                            "tensorShape": {
                                "dim": [
                                    {
                                        "size": "4"
                                    }
                                ]
                            }
                        }
                    },
                    "dtype": {
                        "type": "DT_INT32"
                    }
                }
            },
            {
                "name": "PartitionedCall/mul_5/y",
                "op": "Const",
                "attr": {
                    "dtype": {
                        "type": "DT_FLOAT"
                    },
                    "value": {
                        "tensor": {
                            "dtype": "DT_FLOAT",
                            "tensorShape": {}
                        }
                    }
                }
            },
            {
                "name": "PartitionedCall/add_22/y",
                "op": "Const",
                "attr": {
                    "value": {
                        "tensor": {
                            "dtype": "DT_FLOAT",
                            "tensorShape": {}
                        }
                    },
                    "dtype": {
                        "type": "DT_FLOAT"
                    }
                }
            },
            {
                "name": "PartitionedCall/clip_by_value_5/Minimum/y",
                "op": "Const",
                "attr": {
                    "dtype": {
                        "type": "DT_FLOAT"
                    },
                    "value": {
                        "tensor": {
                            "dtype": "DT_FLOAT",
                            "tensorShape": {}
                        }
                    }
                }
            },
            {
                "name": "PartitionedCall/clip_by_value_5/y",
                "op": "Const",
                "attr": {
                    "value": {
                        "tensor": {
                            "dtype": "DT_FLOAT",
                            "tensorShape": {}
                        }
                    },
                    "dtype": {
                        "type": "DT_FLOAT"
                    }
                }
            },
            {
                "name": "PartitionedCall/Const_5",
                "op": "Const",
                "attr": {
                    "value": {
                        "tensor": {
                            "dtype": "DT_INT32",
                            "tensorShape": {
                                "dim": [
                                    {
                                        "size": "4"
                                    },
                                    {
                                        "size": "2"
                                    }
                                ]
                            }
                        }
                    },
                    "dtype": {
                        "type": "DT_INT32"
                    }
                }
            },
            {
                "name": "PartitionedCall/transpose_52/perm",
                "op": "Const",
                "attr": {
                    "dtype": {
                        "type": "DT_INT32"
                    },
                    "value": {
                        "tensor": {
                            "dtype": "DT_INT32",
                            "tensorShape": {
                                "dim": [
                                    {
                                        "size": "4"
                                    }
                                ]
                            }
                        }
                    }
                }
            },
            {
                "name": "PartitionedCall/Reshape_4",
                "op": "Const",
                "attr": {
                    "value": {
                        "tensor": {
                            "dtype": "DT_FLOAT",
                            "tensorShape": {
                                "dim": [
                                    {
                                        "size": "5"
                                    },
                                    {
                                        "size": "5"
                                    },
                                    {
                                        "size": "240"
                                    },
                                    {
                                        "size": "1"
                                    }
                                ]
                            }
                        }
                    },
                    "dtype": {
                        "type": "DT_FLOAT"
                    }
                }
            },
            {
                "name": "PartitionedCall/onnx_tf_prefix_/Constant_38",
                "op": "Const",
                "attr": {
                    "value": {
                        "tensor": {
                            "dtype": "DT_FLOAT",
                            "tensorShape": {
                                "dim": [
                                    {
                                        "size": "240"
                                    }
                                ]
                            }
                        }
                    },
                    "dtype": {
                        "type": "DT_FLOAT"
                    }
                }
            },
            {
                "name": "PartitionedCall/transpose_53/perm",
                "op": "Const",
                "attr": {
                    "dtype": {
                        "type": "DT_INT32"
                    },
                    "value": {
                        "tensor": {
                            "dtype": "DT_INT32",
                            "tensorShape": {
                                "dim": [
                                    {
                                        "size": "4"
                                    }
                                ]
                            }
                        }
                    }
                }
            },
            {
                "name": "PartitionedCall/mul_6/y",
                "op": "Const",
                "attr": {
                    "dtype": {
                        "type": "DT_FLOAT"
                    },
                    "value": {
                        "tensor": {
                            "dtype": "DT_FLOAT",
                            "tensorShape": {}
                        }
                    }
                }
            },
            {
                "name": "PartitionedCall/add_24/y",
                "op": "Const",
                "attr": {
                    "value": {
                        "tensor": {
                            "dtype": "DT_FLOAT",
                            "tensorShape": {}
                        }
                    },
                    "dtype": {
                        "type": "DT_FLOAT"
                    }
                }
            },
            {
                "name": "PartitionedCall/clip_by_value_6/Minimum/y",
                "op": "Const",
                "attr": {
                    "dtype": {
                        "type": "DT_FLOAT"
                    },
                    "value": {
                        "tensor": {
                            "dtype": "DT_FLOAT",
                            "tensorShape": {}
                        }
                    }
                }
            },
            {
                "name": "PartitionedCall/clip_by_value_6/y",
                "op": "Const",
                "attr": {
                    "dtype": {
                        "type": "DT_FLOAT"
                    },
                    "value": {
                        "tensor": {
                            "dtype": "DT_FLOAT",
                            "tensorShape": {}
                        }
                    }
                }
            },
            {
                "name": "PartitionedCall/transpose_61/perm",
                "op": "Const",
                "attr": {
                    "value": {
                        "tensor": {
                            "dtype": "DT_INT32",
                            "tensorShape": {
                                "dim": [
                                    {
                                        "size": "4"
                                    }
                                ]
                            }
                        }
                    },
                    "dtype": {
                        "type": "DT_INT32"
                    }
                }
            },
            {
                "name": "PartitionedCall/split_18",
                "op": "Const",
                "attr": {
                    "dtype": {
                        "type": "DT_FLOAT"
                    },
                    "value": {
                        "tensor": {
                            "dtype": "DT_FLOAT",
                            "tensorShape": {
                                "dim": [
                                    {
                                        "size": "1"
                                    },
                                    {
                                        "size": "1"
                                    },
                                    {
                                        "size": "240"
                                    },
                                    {
                                        "size": "40"
                                    }
                                ]
                            }
                        }
                    }
                }
            },
            {
                "name": "PartitionedCall/onnx_tf_prefix_/Constant_44",
                "op": "Const",
                "attr": {
                    "dtype": {
                        "type": "DT_FLOAT"
                    },
                    "value": {
                        "tensor": {
                            "dtype": "DT_FLOAT",
                            "tensorShape": {
                                "dim": [
                                    {
                                        "size": "40"
                                    }
                                ]
                            }
                        }
                    }
                }
            },
            {
                "name": "PartitionedCall/transpose_62/perm",
                "op": "Const",
                "attr": {
                    "dtype": {
                        "type": "DT_INT32"
                    },
                    "value": {
                        "tensor": {
                            "dtype": "DT_INT32",
                            "tensorShape": {
                                "dim": [
                                    {
                                        "size": "4"
                                    }
                                ]
                            }
                        }
                    }
                }
            },
            {
                "name": "ConstantFolding/PartitionedCall/split_10-folded-1",
                "op": "Const",
                "attr": {
                    "dtype": {
                        "type": "DT_INT32"
                    },
                    "value": {
                        "tensor": {
                            "dtype": "DT_INT32",
                            "tensorShape": {
                                "dim": [
                                    {
                                        "size": "2"
                                    }
                                ]
                            }
                        }
                    }
                }
            },
            {
                "name": "PartitionedCall/transpose_40/perm",
                "op": "Const",
                "attr": {
                    "value": {
                        "tensor": {
                            "dtype": "DT_INT32",
                            "tensorShape": {
                                "dim": [
                                    {
                                        "size": "4"
                                    }
                                ]
                            }
                        }
                    },
                    "dtype": {
                        "type": "DT_INT32"
                    }
                }
            },
            {
                "name": "PartitionedCall/split_11",
                "op": "Const",
                "attr": {
                    "dtype": {
                        "type": "DT_FLOAT"
                    },
                    "value": {
                        "tensor": {
                            "dtype": "DT_FLOAT",
                            "tensorShape": {
                                "dim": [
                                    {
                                        "size": "1"
                                    },
                                    {
                                        "size": "1"
                                    },
                                    {
                                        "size": "96"
                                    },
                                    {
                                        "size": "24"
                                    }
                                ]
                            }
                        }
                    }
                }
            },
            {
                "name": "PartitionedCall/onnx_tf_prefix_/Constant_30",
                "op": "Const",
                "attr": {
                    "value": {
                        "tensor": {
                            "dtype": "DT_FLOAT",
                            "tensorShape": {
                                "dim": [
                                    {
                                        "size": "24"
                                    }
                                ]
                            }
                        }
                    },
                    "dtype": {
                        "type": "DT_FLOAT"
                    }
                }
            },
            {
                "name": "PartitionedCall/transpose_41/perm",
                "op": "Const",
                "attr": {
                    "value": {
                        "tensor": {
                            "dtype": "DT_INT32",
                            "tensorShape": {
                                "dim": [
                                    {
                                        "size": "4"
                                    }
                                ]
                            }
                        }
                    },
                    "dtype": {
                        "type": "DT_INT32"
                    }
                }
            },
            {
                "name": "PartitionedCall/transpose_43/perm",
                "op": "Const",
                "attr": {
                    "value": {
                        "tensor": {
                            "dtype": "DT_INT32",
                            "tensorShape": {
                                "dim": [
                                    {
                                        "size": "4"
                                    }
                                ]
                            }
                        }
                    },
                    "dtype": {
                        "type": "DT_INT32"
                    }
                }
            },
            {
                "name": "PartitionedCall/split_12",
                "op": "Const",
                "attr": {
                    "value": {
                        "tensor": {
                            "dtype": "DT_FLOAT",
                            "tensorShape": {
                                "dim": [
                                    {
                                        "size": "1"
                                    },
                                    {
                                        "size": "1"
                                    },
                                    {
                                        "size": "24"
                                    },
                                    {
                                        "size": "96"
                                    }
                                ]
                            }
                        }
                    },
                    "dtype": {
                        "type": "DT_FLOAT"
                    }
                }
            },
            {
                "name": "PartitionedCall/onnx_tf_prefix_/Constant_32",
                "op": "Const",
                "attr": {
                    "value": {
                        "tensor": {
                            "dtype": "DT_FLOAT",
                            "tensorShape": {
                                "dim": [
                                    {
                                        "size": "96"
                                    }
                                ]
                            }
                        }
                    },
                    "dtype": {
                        "type": "DT_FLOAT"
                    }
                }
            },
            {
                "name": "PartitionedCall/transpose_44/perm",
                "op": "Const",
                "attr": {
                    "dtype": {
                        "type": "DT_INT32"
                    },
                    "value": {
                        "tensor": {
                            "dtype": "DT_INT32",
                            "tensorShape": {
                                "dim": [
                                    {
                                        "size": "4"
                                    }
                                ]
                            }
                        }
                    }
                }
            },
            {
                "name": "PartitionedCall/mul_4/y",
                "op": "Const",
                "attr": {
                    "value": {
                        "tensor": {
                            "dtype": "DT_FLOAT",
                            "tensorShape": {}
                        }
                    },
                    "dtype": {
                        "type": "DT_FLOAT"
                    }
                }
            },
            {
                "name": "PartitionedCall/add_19/y",
                "op": "Const",
                "attr": {
                    "value": {
                        "tensor": {
                            "dtype": "DT_FLOAT",
                            "tensorShape": {}
                        }
                    },
                    "dtype": {
                        "type": "DT_FLOAT"
                    }
                }
            },
            {
                "name": "PartitionedCall/clip_by_value_4/Minimum/y",
                "op": "Const",
                "attr": {
                    "value": {
                        "tensor": {
                            "dtype": "DT_FLOAT",
                            "tensorShape": {}
                        }
                    },
                    "dtype": {
                        "type": "DT_FLOAT"
                    }
                }
            },
            {
                "name": "PartitionedCall/clip_by_value_4/y",
                "op": "Const",
                "attr": {
                    "value": {
                        "tensor": {
                            "dtype": "DT_FLOAT",
                            "tensorShape": {}
                        }
                    },
                    "dtype": {
                        "type": "DT_FLOAT"
                    }
                }
            },
            {
                "name": "PartitionedCall/split_7",
                "op": "Const",
                "attr": {
                    "value": {
                        "tensor": {
                            "dtype": "DT_FLOAT",
                            "tensorShape": {
                                "dim": [
                                    {
                                        "size": "1"
                                    },
                                    {
                                        "size": "1"
                                    },
                                    {
                                        "size": "24"
                                    },
                                    {
                                        "size": "88"
                                    }
                                ]
                            }
                        }
                    },
                    "dtype": {
                        "type": "DT_FLOAT"
                    }
                }
            },
            {
                "name": "PartitionedCall/onnx_tf_prefix_/Constant_20",
                "op": "Const",
                "attr": {
                    "dtype": {
                        "type": "DT_FLOAT"
                    },
                    "value": {
                        "tensor": {
                            "dtype": "DT_FLOAT",
                            "tensorShape": {
                                "dim": [
                                    {
                                        "size": "88"
                                    }
                                ]
                            }
                        }
                    }
                }
            },
            {
                "name": "PartitionedCall/transpose_26/perm",
                "op": "Const",
                "attr": {
                    "dtype": {
                        "type": "DT_INT32"
                    },
                    "value": {
                        "tensor": {
                            "dtype": "DT_INT32",
                            "tensorShape": {
                                "dim": [
                                    {
                                        "size": "4"
                                    }
                                ]
                            }
                        }
                    }
                }
            },
            {
                "name": "PartitionedCall/Const_3",
                "op": "Const",
                "attr": {
                    "value": {
                        "tensor": {
                            "dtype": "DT_INT32",
                            "tensorShape": {
                                "dim": [
                                    {
                                        "size": "4"
                                    },
                                    {
                                        "size": "2"
                                    }
                                ]
                            }
                        }
                    },
                    "dtype": {
                        "type": "DT_INT32"
                    }
                }
            },
            {
                "name": "PartitionedCall/transpose_28/perm",
                "op": "Const",
                "attr": {
                    "value": {
                        "tensor": {
                            "dtype": "DT_INT32",
                            "tensorShape": {
                                "dim": [
                                    {
                                        "size": "4"
                                    }
                                ]
                            }
                        }
                    },
                    "dtype": {
                        "type": "DT_INT32"
                    }
                }
            },
            {
                "name": "PartitionedCall/Reshape_2",
                "op": "Const",
                "attr": {
                    "dtype": {
                        "type": "DT_FLOAT"
                    },
                    "value": {
                        "tensor": {
                            "dtype": "DT_FLOAT",
                            "tensorShape": {
                                "dim": [
                                    {
                                        "size": "3"
                                    },
                                    {
                                        "size": "3"
                                    },
                                    {
                                        "size": "88"
                                    },
…
                    "name": "PartitionedCall/transpose_88/perm",
                    "shape": [
                        4
                    ],
                    "dtype": "int32"
                },
                {
                    "name": "PartitionedCall/split_27",
                    "shape": [
                        1,
                        1,
                        32,
                        120
                    ],
                    "dtype": "float32"
                },
                {
                    "name": "PartitionedCall/onnx_tf_prefix_/Constant_62",
                    "shape": [
                        120
                    ],
                    "dtype": "float32"
                },
                {
                    "name": "PartitionedCall/transpose_89/perm",
                    "shape": [
                        4
                    ],
                    "dtype": "int32"
                },
                {
                    "name": "PartitionedCall/mul_13/y",
                    "shape": [],
                    "dtype": "float32"
                },
                {
                    "name": "PartitionedCall/add_43/y",
                    "shape": [],
                    "dtype": "float32"
                },
                {
                    "name": "PartitionedCall/clip_by_value_13/Minimum/y",
                    "shape": [],
                    "dtype": "float32"
                },
                {
                    "name": "PartitionedCall/clip_by_value_13/y",
                    "shape": [],
                    "dtype": "float32"
                },
                {
                    "name": "ConstantFolding/PartitionedCall/split_20-folded-1",
                    "shape": [
                        2
                    ],
                    "dtype": "int32"
                },
                {
                    "name": "PartitionedCall/transpose_70/perm",
                    "shape": [
                        4
                    ],
                    "dtype": "int32"
                },
                {
                    "name": "PartitionedCall/split_21",
                    "shape": [
                        1,
                        1,
                        240,
                        64
                    ],
                    "dtype": "float32"
                },
                {
                    "name": "PartitionedCall/onnx_tf_prefix_/Constant_50",
                    "shape": [
                        64
                    ],
                    "dtype": "float32"
                },
                {
                    "name": "PartitionedCall/transpose_71/perm",
                    "shape": [
                        4
                    ],
                    "dtype": "int32"
                },
                {
                    "name": "PartitionedCall/transpose_73/perm",
                    "shape": [
                        4
                    ],
                    "dtype": "int32"
                },
                {
                    "name": "PartitionedCall/split_22",
                    "shape": [
                        1,
                        1,
                        64,
                        240
                    ],
                    "dtype": "float32"
                },
                {
                    "name": "PartitionedCall/onnx_tf_prefix_/Constant_52",
                    "shape": [
                        240
                    ],
                    "dtype": "float32"
                },
                {
                    "name": "PartitionedCall/transpose_74/perm",
                    "shape": [
                        4
                    ],
                    "dtype": "int32"
                },
                {
                    "name": "PartitionedCall/mul_10/y",
                    "shape": [],
                    "dtype": "float32"
                },
                {
                    "name": "PartitionedCall/add_35/y",
                    "shape": [],
                    "dtype": "float32"
                },
                {
                    "name": "PartitionedCall/clip_by_value_10/Minimum/y",
                    "shape": [],
                    "dtype": "float32"
                },
                {
                    "name": "PartitionedCall/clip_by_value_10/y",
                    "shape": [],
                    "dtype": "float32"
                },
                {
                    "name": "PartitionedCall/transpose_64/perm",
                    "shape": [
                        4
                    ],
                    "dtype": "int32"
                },
                {
                    "name": "PartitionedCall/split_19",
                    "shape": [
                        1,
                        1,
                        40,
                        240
                    ],
                    "dtype": "float32"
                },
                {
                    "name": "PartitionedCall/onnx_tf_prefix_/Constant_46",
                    "shape": [
                        240
                    ],
                    "dtype": "float32"
                },
                {
                    "name": "PartitionedCall/transpose_65/perm",
                    "shape": [
                        4
                    ],
                    "dtype": "int32"
                },
                {
                    "name": "PartitionedCall/mul_8/y",
                    "shape": [],
                    "dtype": "float32"
                },
                {
                    "name": "PartitionedCall/add_30/y",
                    "shape": [],
                    "dtype": "float32"
                },
                {
                    "name": "PartitionedCall/clip_by_value_8/Minimum/y",
                    "shape": [],
                    "dtype": "float32"
                },
                {
                    "name": "PartitionedCall/clip_by_value_8/y",
                    "shape": [],
                    "dtype": "float32"
                },
                {
                    "name": "PartitionedCall/Const_6",
                    "shape": [
                        4,
                        2
                    ],
                    "dtype": "int32"
                },
                {
                    "name": "PartitionedCall/transpose_67/perm",
                    "shape": [
                        4
                    ],
                    "dtype": "int32"
                },
                {
                    "name": "PartitionedCall/Reshape_5",
                    "shape": [
                        5,
                        5,
                        240,
                        1
                    ],
                    "dtype": "float32"
                },
                {
                    "name": "PartitionedCall/onnx_tf_prefix_/Constant_48",
                    "shape": [
                        240
                    ],
                    "dtype": "float32"
                },
                {
                    "name": "PartitionedCall/transpose_68/perm",
                    "shape": [
                        4
                    ],
                    "dtype": "int32"
                },
                {
                    "name": "PartitionedCall/mul_9/y",
                    "shape": [],
                    "dtype": "float32"
                },
                {
                    "name": "PartitionedCall/add_32/y",
                    "shape": [],
                    "dtype": "float32"
                },
                {
                    "name": "PartitionedCall/clip_by_value_9/Minimum/y",
                    "shape": [],
                    "dtype": "float32"
                },
                {
                    "name": "PartitionedCall/clip_by_value_9/y",
                    "shape": [],
                    "dtype": "float32"
                },
                {
                    "name": "PartitionedCall/transpose_76/perm",
                    "shape": [
                        4
                    ],
                    "dtype": "int32"
                },
                {
                    "name": "PartitionedCall/split_23",
                    "shape": [
                        1,
                        1,
                        240,
                        40
                    ],
                    "dtype": "float32"
                },
                {
                    "name": "PartitionedCall/onnx_tf_prefix_/Constant_54",
                    "shape": [
                        40
                    ],
                    "dtype": "float32"
                },
                {
                    "name": "PartitionedCall/transpose_77/perm",
                    "shape": [
                        4
                    ],
                    "dtype": "int32"
                },
                {
                    "name": "ConstantFolding/PartitionedCall/split_15-folded-1",
                    "shape": [
                        2
                    ],
                    "dtype": "int32"
                },
                {
                    "name": "PartitionedCall/transpose_55/perm",
                    "shape": [
                        4
                    ],
                    "dtype": "int32"
                },
                {
                    "name": "PartitionedCall/split_16",
                    "shape": [
                        1,
                        1,
                        240,
                        64
                    ],
                    "dtype": "float32"
                },
                {
                    "name": "PartitionedCall/onnx_tf_prefix_/Constant_40",
                    "shape": [
                        64
                    ],
                    "dtype": "float32"
                },
                {
                    "name": "PartitionedCall/transpose_56/perm",
                    "shape": [
                        4
                    ],
                    "dtype": "int32"
                },
                {
                    "name": "PartitionedCall/transpose_58/perm",
                    "shape": [
                        4
                    ],
                    "dtype": "int32"
                },
                {
                    "name": "PartitionedCall/split_17",
                    "shape": [
                        1,
                        1,
                        64,
                        240
                    ],
                    "dtype": "float32"
                },
                {
                    "name": "PartitionedCall/onnx_tf_prefix_/Constant_42",
                    "shape": [
                        240
                    ],
                    "dtype": "float32"
                },
                {
                    "name": "PartitionedCall/transpose_59/perm",
                    "shape": [
                        4
                    ],
                    "dtype": "int32"
                },
                {
                    "name": "PartitionedCall/mul_7/y",
                    "shape": [],
                    "dtype": "float32"
                },
                {
                    "name": "PartitionedCall/add_27/y",
                    "shape": [],
                    "dtype": "float32"
                },
                {
                    "name": "PartitionedCall/clip_by_value_7/Minimum/y",
                    "shape": [],
                    "dtype": "float32"
                },
                {
                    "name": "PartitionedCall/clip_by_value_7/y",
                    "shape": [],
                    "dtype": "float32"
                },
                {
                    "name": "PartitionedCall/split_14",
                    "shape": [
                        1,
                        1,
                        40,
                        240
                    ],
                    "dtype": "float32"
                },
                {
                    "name": "PartitionedCall/onnx_tf_prefix_/Constant_36",
                    "shape": [
                        240
                    ],
                    "dtype": "float32"
                },
                {
                    "name": "PartitionedCall/transpose_50/perm",
                    "shape": [
                        4
                    ],
                    "dtype": "int32"
                },
                {
                    "name": "PartitionedCall/mul_5/y",
                    "shape": [],
                    "dtype": "float32"
                },
                {
                    "name": "PartitionedCall/add_22/y",
                    "shape": [],
                    "dtype": "float32"
                },
                {
                    "name": "PartitionedCall/clip_by_value_5/Minimum/y",
                    "shape": [],
                    "dtype": "float32"
                },
                {
                    "name": "PartitionedCall/clip_by_value_5/y",
                    "shape": [],
                    "dtype": "float32"
                },
                {
                    "name": "PartitionedCall/Const_5",
                    "shape": [
                        4,
                        2
                    ],
                    "dtype": "int32"
                },
                {
                    "name": "PartitionedCall/transpose_52/perm",
                    "shape": [
                        4
                    ],
                    "dtype": "int32"
                },
                {
                    "name": "PartitionedCall/Reshape_4",
                    "shape": [
                        5,
                        5,
                        240,
                        1
                    ],
                    "dtype": "float32"
                },
                {
                    "name": "PartitionedCall/onnx_tf_prefix_/Constant_38",
                    "shape": [
                        240
                    ],
                    "dtype": "float32"
                },
                {
                    "name": "PartitionedCall/transpose_53/perm",
                    "shape": [
                        4
                    ],
                    "dtype": "int32"
                },
                {
                    "name": "PartitionedCall/mul_6/y",
                    "shape": [],
                    "dtype": "float32"
                },
                {
                    "name": "PartitionedCall/add_24/y",
                    "shape": [],
                    "dtype": "float32"
                },
                {
                    "name": "PartitionedCall/clip_by_value_6/Minimum/y",
                    "shape": [],
                    "dtype": "float32"
                },
                {
                    "name": "PartitionedCall/clip_by_value_6/y",
                    "shape": [],
                    "dtype": "float32"
                },
                {
                    "name": "PartitionedCall/transpose_61/perm",
                    "shape": [
                        4
                    ],
                    "dtype": "int32"
                },
                {
                    "name": "PartitionedCall/split_18",
                    "shape": [
                        1,
                        1,
                        240,
                        40
                    ],
                    "dtype": "float32"
                },
                {
                    "name": "PartitionedCall/onnx_tf_prefix_/Constant_44",
                    "shape": [
                        40
                    ],
                    "dtype": "float32"
                },
                {
                    "name": "PartitionedCall/transpose_62/perm",
                    "shape": [
                        4
                    ],
                    "dtype": "int32"
                },
                {
                    "name": "ConstantFolding/PartitionedCall/split_10-folded-1",
                    "shape": [
                        2
                    ],
                    "dtype": "int32"
                },
                {
                    "name": "PartitionedCall/transpose_40/perm",
                    "shape": [
                        4
                    ],
                    "dtype": "int32"
                },
                {
                    "name": "PartitionedCall/split_11",
                    "shape": [
                        1,
                        1,
                        96,
                        24
                    ],
                    "dtype": "float32"
                },
                {
                    "name": "PartitionedCall/onnx_tf_prefix_/Constant_30",
                    "shape": [
                        24
                    ],
                    "dtype": "float32"
                },
                {
                    "name": "PartitionedCall/transpose_41/perm",
                    "shape": [
                        4
                    ],
                    "dtype": "int32"
                },
                {
                    "name": "PartitionedCall/transpose_43/perm",
                    "shape": [
                        4
                    ],
                    "dtype": "int32"
                },
                {
                    "name": "PartitionedCall/split_12",
                    "shape": [
                        1,
                        1,
                        24,
                        96
                    ],
                    "dtype": "float32"
                },
                {
                    "name": "PartitionedCall/onnx_tf_prefix_/Constant_32",
                    "shape": [
                        96
                    ],
                    "dtype": "float32"
                },
                {
                    "name": "PartitionedCall/transpose_44/perm",
                    "shape": [
                        4
                    ],
                    "dtype": "int32"
                },
                {
                    "name": "PartitionedCall/mul_4/y",
                    "shape": [],
                    "dtype": "float32"
                },
                {
                    "name": "PartitionedCall/add_19/y",
                    "shape": [],
                    "dtype": "float32"
                },
                {
                    "name": "PartitionedCall/clip_by_value_4/Minimum/y",
                    "shape": [],
                    "dtype": "float32"
                },
                {
                    "name": "PartitionedCall/clip_by_value_4/y",
                    "shape": [],
                    "dtype": "float32"
                },
                {
                    "name": "PartitionedCall/split_7",
                    "shape": [
                        1,
                        1,
                        24,
                        88
                    ],
                    "dtype": "float32"
                },
                {
                    "name": "PartitionedCall/onnx_tf_prefix_/Constant_20",
                    "shape": [
                        88
                    ],
                    "dtype": "float32"
                },
                {
                    "name": "PartitionedCall/transpose_26/perm",
                    "shape": [
                        4
                    ],
                    "dtype": "int32"
                },
                {
                    "name": "PartitionedCall/Const_3",
                    "shape": [
                        4,
                        2
                    ],
                    "dtype": "int32"
                },
                {
                    "name": "PartitionedCall/transpose_28/perm",
                    "shape": [
                        4
                    ],
                    "dtype": "int32"
                },
                {
                    "name": "PartitionedCall/Reshape_2",
                    "shape": [
                        3,
                        3,
                        88,
                        1
                    ],
                    "dtype": "float32"
                },
                {
                    "name": "PartitionedCall/onnx_tf_prefix_/Constant_22",
                    "shape": [
                        88
                    ],
                    "dtype": "float32"
                },
                {
                    "name": "PartitionedCall/transpose_29/perm",
                    "shape": [
                        4
                    ],
                    "dtype": "int32"
                },
                {
                    "name": "PartitionedCall/transpose_31/perm",
                    "shape": [
                        4
                    ],
                    "dtype": "int32"
                },
                {
                    "name": "PartitionedCall/split_8",
                    "shape": [
                        1,
                        1,
                        88,
                        24
                    ],
                    "dtype": "float32"
                },
                {
                    "name": "PartitionedCall/onnx_tf_prefix_/Constant_24",
                    "shape": [
                        24
                    ],
                    "dtype": "float32"
                },
                {
                    "name": "PartitionedCall/transpose_32/perm",
                    "shape": [
                        4
                    ],
                    "dtype": "int32"
                },
                {
                    "name": "ConstantFolding/PartitionedCall/split_1-folded-1",
                    "shape": [
                        2
                    ],
                    "dtype": "int32"
                },
                {
                    "name": "PartitionedCall/transpose_7/perm",
                    "shape": [
                        4
                    ],
                    "dtype": "int32"
                },
                {
                    "name": "PartitionedCall/split_2",
                    "shape": [
                        1,
                        1,
                        16,
                        8
                    ],
                    "dtype": "float32"
                },
                {
                    "name": "PartitionedCall/onnx_tf_prefix_/Constant_8",
                    "shape": [
                        8
                    ],
                    "dtype": "float32"
                },
                {
                    "name": "PartitionedCall/transpose_8/perm",
                    "shape": [
                        4
                    ],
                    "dtype": "int32"
                },
                {
                    "name": "PartitionedCall/transpose_10/perm",
                    "shape": [
                        4
                    ],
                    "dtype": "int32"
                },
                {
                    "name": "PartitionedCall/split_3",
                    "shape": [
                        1,
                        1,
                        8,
                        16
                    ],
                    "dtype": "float32"
                },
                {
                    "name": "PartitionedCall/onnx_tf_prefix_/Constant_10",
                    "shape": [
                        16
                    ],
                    "dtype": "float32"
                },
                {
                    "name": "PartitionedCall/transpose_11/perm",
                    "shape": [
                        4
                    ],
                    "dtype": "int32"
                },
                {
                    "name": "PartitionedCall/mul_1/y",
                    "shape": [],
                    "dtype": "float32"
                },
                {
                    "name": "PartitionedCall/add_5/y",
                    "shape": [],
                    "dtype": "float32"
                },
                {
                    "name": "PartitionedCall/clip_by_value_1/Minimum/y",
                    "shape": [],
                    "dtype": "float32"
                },
                {
                    "name": "PartitionedCall/clip_by_value_1/y",
                    "shape": [],
                    "dtype": "float32"
                },
                {
                    "name": "PartitionedCall/Const",
                    "shape": [
                        4,
                        2
                    ],
                    "dtype": "int32"
                },
                {
                    "name": "PartitionedCall/transpose_1/perm",
                    "shape": [
                        4
                    ],
                    "dtype": "int32"
                },
                {
                    "name": "PartitionedCall/split",
                    "shape": [
                        3,
                        3,
                        3,
                        16
                    ],
                    "dtype": "float32"
                },
                {
                    "name": "PartitionedCall/onnx_tf_prefix_/Constant_4",
                    "shape": [
                        16
                    ],
                    "dtype": "float32"
                },
                {
                    "name": "PartitionedCall/transpose_2/perm",
                    "shape": [
                        4
                    ],
                    "dtype": "int32"
                },
                {
                    "name": "PartitionedCall/mul/y",
                    "shape": [],
                    "dtype": "float32"
                },
                {
                    "name": "PartitionedCall/add_1/y",
                    "shape": [],
                    "dtype": "float32"
                },
                {
                    "name": "PartitionedCall/clip_by_value/Minimum/y",
                    "shape": [],
                    "dtype": "float32"
                },
                {
                    "name": "PartitionedCall/clip_by_value/y",
                    "shape": [],
                    "dtype": "float32"
                },
                {
                    "name": "PartitionedCall/Const_1",
                    "shape": [
                        4,
                        2
                    ],
                    "dtype": "int32"
                },
                {
                    "name": "PartitionedCall/transpose_4/perm",
                    "shape": [
                        4
                    ],
                    "dtype": "int32"
                },
                {
                    "name": "PartitionedCall/Reshape",
                    "shape": [
                        3,
                        3,
                        16,
                        1
                    ],
                    "dtype": "float32"
                },
                {
                    "name": "PartitionedCall/onnx_tf_prefix_/Constant_6",
                    "shape": [
                        16
                    ],
                    "dtype": "float32"
                },
                {
                    "name": "PartitionedCall/transpose_5/perm",
                    "shape": [
                        4
                    ],
                    "dtype": "int32"
                },
                {
                    "name": "PartitionedCall/transpose_13/perm",
                    "shape": [
                        4
                    ],
                    "dtype": "int32"
                },
                {
                    "name": "PartitionedCall/split_4",
                    "shape": [
                        1,
                        1,
                        16,
                        16
                    ],
                    "dtype": "float32"
                },
                {
                    "name": "PartitionedCall/onnx_tf_prefix_/Constant_12",
                    "shape": [
                        16
                    ],
                    "dtype": "float32"
                },
                {
                    "name": "PartitionedCall/split_5",
                    "shape": [
                        1,
                        1,
                        16,
                        72
                    ],
                    "dtype": "float32"
                },
                {
                    "name": "PartitionedCall/onnx_tf_prefix_/Constant_14",
                    "shape": [
                        72
                    ],
                    "dtype": "float32"
                },
                {
                    "name": "PartitionedCall/transpose_17/perm",
                    "shape": [
                        4
                    ],
                    "dtype": "int32"
                },
                {
                    "name": "PartitionedCall/Const_2",
                    "shape": [
                        4,
                        2
                    ],
                    "dtype": "int32"
                },
                {
                    "name": "PartitionedCall/transpose_19/perm",
                    "shape": [
                        4
                    ],
                    "dtype": "int32"
                },
                {
                    "name": "PartitionedCall/Reshape_1",
                    "shape": [
                        3,
                        3,
                        72,
                        1
                    ],
                    "dtype": "float32"
                },
                {
                    "name": "PartitionedCall/onnx_tf_prefix_/Constant_16",
                    "shape": [
                        72
                    ],
                    "dtype": "float32"
                },
                {
                    "name": "PartitionedCall/transpose_20/perm",
                    "shape": [
                        4
                    ],
                    "dtype": "int32"
                },
                {
                    "name": "PartitionedCall/transpose_22/perm",
                    "shape": [
                        4
                    ],
                    "dtype": "int32"
                },
                {
                    "name": "PartitionedCall/split_6",
                    "shape": [
                        1,
                        1,
                        72,
                        24
                    ],
                    "dtype": "float32"
                },
                {
                    "name": "PartitionedCall/onnx_tf_prefix_/Constant_18",
                    "shape": [
                        24
                    ],
                    "dtype": "float32"
                },
                {
                    "name": "PartitionedCall/transpose_23/perm",
                    "shape": [
                        4
                    ],
                    "dtype": "int32"
                },
                {
                    "name": "PartitionedCall/transpose_34/perm",
                    "shape": [
                        4
                    ],
                    "dtype": "int32"
                },
                {
                    "name": "PartitionedCall/split_9",
                    "shape": [
                        1,
                        1,
                        24,
                        96
                    ],
                    "dtype": "float32"
                },
                {
                    "name": "PartitionedCall/onnx_tf_prefix_/Constant_26",
                    "shape": [
                        96
                    ],
                    "dtype": "float32"
                },
                {
                    "name": "PartitionedCall/transpose_35/perm",
                    "shape": [
                        4
                    ],
                    "dtype": "int32"
                },
                {
                    "name": "PartitionedCall/mul_2/y",
                    "shape": [],
                    "dtype": "float32"
                },
                {
                    "name": "PartitionedCall/add_14/y",
                    "shape": [],
                    "dtype": "float32"
                },
                {
                    "name": "PartitionedCall/clip_by_value_2/Minimum/y",
                    "shape": [],
                    "dtype": "float32"
                },
                {
                    "name": "PartitionedCall/clip_by_value_2/y",
                    "shape": [],
                    "dtype": "float32"
                },
                {
                    "name": "PartitionedCall/Const_4",
                    "shape": [
                        4,
                        2
                    ],
                    "dtype": "int32"
                },
                {
                    "name": "PartitionedCall/transpose_37/perm",
                    "shape": [
                        4
                    ],
                    "dtype": "int32"
                },
                {
                    "name": "PartitionedCall/Reshape_3",
                    "shape": [
                        5,
                        5,
                        96,
                        1
                    ],
                    "dtype": "float32"
                },
                {
                    "name": "PartitionedCall/onnx_tf_prefix_/Constant_28",
                    "shape": [
                        96
                    ],
                    "dtype": "float32"
                },
                {
                    "name": "PartitionedCall/transpose_38/perm",
                    "shape": [
                        4
                    ],
                    "dtype": "int32"
                },
                {
                    "name": "PartitionedCall/mul_3/y",
                    "shape": [],
                    "dtype": "float32"
                },
                {
                    "name": "PartitionedCall/add_16/y",
                    "shape": [],
                    "dtype": "float32"
                },
                {
                    "name": "PartitionedCall/clip_by_value_3/Minimum/y",
                    "shape": [],
                    "dtype": "float32"
                },
                {
                    "name": "PartitionedCall/clip_by_value_3/y",
                    "shape": [],
                    "dtype": "float32"
                },
                {
                    "name": "PartitionedCall/transpose_46/perm",
                    "shape": [
                        4
                    ],
                    "dtype": "int32"
                },
                {
                    "name": "PartitionedCall/split_13",
                    "shape": [
                        1,
                        1,
                        96,
                        40
                    ],
                    "dtype": "float32"
                },
                {
                    "name": "PartitionedCall/onnx_tf_prefix_/Constant_34",
                    "shape": [
                        40
                    ],
                    "dtype": "float32"
                },
                {
                    "name": "PartitionedCall/transpose_47/perm",
                    "shape": [
                        4
                    ],
                    "dtype": "int32"
                },
                {
                    "name": "PartitionedCall/transpose_79/perm",
                    "shape": [
                        4
                    ],
                    "dtype": "int32"
                },
                {
                    "name": "PartitionedCall/split_24",
                    "shape": [
                        1,
                        1,
                        40,
                        120
                    ],
                    "dtype": "float32"
                },
                {
                    "name": "PartitionedCall/onnx_tf_prefix_/Constant_56",
                    "shape": [
                        120
                    ],
                    "dtype": "float32"
                },
                {
                    "name": "PartitionedCall/transpose_80/perm",
                    "shape": [
                        4
                    ],
                    "dtype": "int32"
                },
                {
                    "name": "PartitionedCall/mul_11/y",
                    "shape": [],
                    "dtype": "float32"
                },
                {
                    "name": "PartitionedCall/add_38/y",
                    "shape": [],
                    "dtype": "float32"
                },
                {
                    "name": "PartitionedCall/clip_by_value_11/Minimum/y",
                    "shape": [],
                    "dtype": "float32"
                },
                {
                    "name": "PartitionedCall/clip_by_value_11/y",
                    "shape": [],
                    "dtype": "float32"
                },
                {
                    "name": "PartitionedCall/Const_7",
                    "shape": [
                        4,
                        2
                    ],
                    "dtype": "int32"
                },
                {
                    "name": "PartitionedCall/transpose_82/perm",
                    "shape": [
                        4
                    ],
                    "dtype": "int32"
                },
                {
                    "name": "PartitionedCall/Reshape_6",
                    "shape": [
                        5,
                        5,
                        120,
                        1
                    ],
                    "dtype": "float32"
                },
                {
                    "name": "PartitionedCall/onnx_tf_prefix_/Constant_58",
                    "shape": [
                        120
                    ],
                    "dtype": "float32"
                },
                {
                    "name": "PartitionedCall/transpose_83/perm",
                    "shape": [
                        4
                    ],
                    "dtype": "int32"
                },
                {
                    "name": "PartitionedCall/mul_12/y",
                    "shape": [],
                    "dtype": "float32"
                },
                {
                    "name": "PartitionedCall/add_40/y",
                    "shape": [],
                    "dtype": "float32"
                },
                {
                    "name": "PartitionedCall/clip_by_value_12/Minimum/y",
                    "shape": [],
                    "dtype": "float32"
                },
                {
                    "name": "PartitionedCall/clip_by_value_12/y",
                    "shape": [],
                    "dtype": "float32"
                },
                {
                    "name": "PartitionedCall/transpose_91/perm",
                    "shape": [
                        4
                    ],
                    "dtype": "int32"
                },
                {
                    "name": "PartitionedCall/split_28",
                    "shape": [
                        1,
                        1,
                        120,
                        48
                    ],
                    "dtype": "float32"
                },
                {
                    "name": "PartitionedCall/onnx_tf_prefix_/Constant_64",
                    "shape": [
                        48
                    ],
                    "dtype": "float32"
                },
                {
                    "name": "PartitionedCall/transpose_92/perm",
                    "shape": [
                        4
                    ],
                    "dtype": "int32"
                },
                {
                    "name": "PartitionedCall/transpose_109/perm",
                    "shape": [
                        4
                    ],
                    "dtype": "int32"
                },
                {
                    "name": "PartitionedCall/split_34",
                    "shape": [
                        1,
                        1,
                        48,
                        288
                    ],
                    "dtype": "float32"
                },
                {
                    "name": "PartitionedCall/onnx_tf_prefix_/Constant_76",
                    "shape": [
                        288
                    ],
                    "dtype": "float32"
                },
                {
                    "name": "PartitionedCall/transpose_110/perm",
                    "shape": [
                        4
                    ],
                    "dtype": "int32"
                },
                {
                    "name": "PartitionedCall/mul_17/y",
                    "shape": [],
                    "dtype": "float32"
                },
                {
                    "name": "PartitionedCall/add_54/y",
                    "shape": [],
                    "dtype": "float32"
                },
                {
                    "name": "PartitionedCall/clip_by_value_17/Minimum/y",
                    "shape": [],
                    "dtype": "float32"
                },
                {
                    "name": "PartitionedCall/clip_by_value_17/y",
                    "shape": [],
                    "dtype": "float32"
                },
                {
                    "name": "PartitionedCall/Const_9",
                    "shape": [
                        4,
                        2
                    ],
                    "dtype": "int32"
                },
                {
                    "name": "PartitionedCall/transpose_112/perm",
                    "shape": [
                        4
                    ],
                    "dtype": "int32"
                },
                {
                    "name": "PartitionedCall/Reshape_8",
                    "shape": [
                        5,
                        5,
                        288,
                        1
                    ],
                    "dtype": "float32"
                },
                {
                    "name": "PartitionedCall/onnx_tf_prefix_/Constant_78",
                    "shape": [
                        288
                    ],
                    "dtype": "float32"
                },
                {
                    "name": "PartitionedCall/transpose_113/perm",
                    "shape": [
                        4
                    ],
                    "dtype": "int32"
                },
                {
                    "name": "PartitionedCall/mul_18/y",
                    "shape": [],
                    "dtype": "float32"
                },
                {
                    "name": "PartitionedCall/add_56/y",
                    "shape": [],
                    "dtype": "float32"
                },
                {
                    "name": "PartitionedCall/clip_by_value_18/Minimum/y",
                    "shape": [],
                    "dtype": "float32"
                },
                {
                    "name": "PartitionedCall/clip_by_value_18/y",
                    "shape": [],
                    "dtype": "float32"
                },
                {
                    "name": "PartitionedCall/transpose_121/perm",
                    "shape": [
                        4
                    ],
                    "dtype": "int32"
                },
                {
                    "name": "PartitionedCall/split_38",
                    "shape": [
                        1,
                        1,
                        288,
                        96
                    ],
                    "dtype": "float32"
                },
                {
                    "name": "PartitionedCall/onnx_tf_prefix_/Constant_84",
                    "shape": [
                        96
                    ],
                    "dtype": "float32"
                },
                {
                    "name": "PartitionedCall/transpose_122/perm",
                    "shape": [
                        4
                    ],
                    "dtype": "int32"
                },
                {
                    "name": "PartitionedCall/transpose_154/perm",
                    "shape": [
                        4
                    ],
                    "dtype": "int32"
                },
                {
                    "name": "PartitionedCall/split_49",
                    "shape": [
                        1,
                        1,
                        96,
                        576
                    ],
                    "dtype": "float32"
                },
                {
                    "name": "PartitionedCall/onnx_tf_prefix_/Constant_106",
                    "shape": [
                        576
                    ],
                    "dtype": "float32"
                },
                {
                    "name": "PartitionedCall/transpose_155/perm",
                    "shape": [
                        4
                    ],
                    "dtype": "int32"
                },
                {
                    "name": "PartitionedCall/mul_26/y",
                    "shape": [],
                    "dtype": "float32"
                },
                {
                    "name": "PartitionedCall/add_78/y",
                    "shape": [],
                    "dtype": "float32"
                },
                {
                    "name": "PartitionedCall/clip_by_value_26/Minimum/y",
                    "shape": [],
                    "dtype": "float32"
                },
                {
                    "name": "PartitionedCall/clip_by_value_26/y",
                    "shape": [],
                    "dtype": "float32"
                },
                {
                    "name": "ConstantFolding/PartitionedCall/split_50-folded-1",
                    "shape": [
                        2
                    ],
                    "dtype": "int32"
                },
                {
                    "name": "PartitionedCall/strided_slice_1/stack",
                    "shape": [
                        1
                    ],
                    "dtype": "int32"
                },
                {
                    "name": "PartitionedCall/strided_slice_1/stack_1",
                    "shape": [
                        1
                    ],
                    "dtype": "int32"
                },
                {
                    "name": "PartitionedCall/strided_slice_1/stack_2",
                    "shape": [
                        1
                    ],
                    "dtype": "int32"
                },
                {
                    "name": "PartitionedCall/Const_14",
                    "shape": [
                        1
                    ],
                    "dtype": "int32"
                },
                {
                    "name": "PartitionedCall/flatten/strided_slice/stack",
                    "shape": [
                        1
                    ],
                    "dtype": "int32"
                },
                {
                    "name": "PartitionedCall/flatten/strided_slice/stack_1",
                    "shape": [
                        1
                    ],
                    "dtype": "int32"
                },
                {
                    "name": "PartitionedCall/flatten/strided_slice/stack_2",
                    "shape": [
                        1
                    ],
                    "dtype": "int32"
                },
                {
                    "name": "PartitionedCall/flatten/Reshape/shape/1",
                    "shape": [],
                    "dtype": "int32"
                },
                {
                    "name": "PartitionedCall/transpose_156",
                    "shape": [
                        576,
                        1024
                    ],
                    "dtype": "float32"
                },
                {
                    "name": "PartitionedCall/mul_28",
                    "shape": [
                        1024
                    ],
                    "dtype": "float32"
                },
                {
                    "name": "PartitionedCall/transpose_157",
                    "shape": [
                        1024,
                        512
                    ],
                    "dtype": "float32"
                },
                {
                    "name": "PartitionedCall/mul_30",
                    "shape": [
                        512
                    ],
                    "dtype": "float32"
                },
                {
                    "name": "PartitionedCall/transpose_158",
                    "shape": [
                        512,
                        51
                    ],
                    "dtype": "float32"
                },
                {
                    "name": "PartitionedCall/mul_32",
                    "shape": [
                        51
                    ],
                    "dtype": "float32"
                }
            ]
        }
    ]
}